checkpoints/2500.ckpt (torch_old, 960255 bytes, 10 tensors)

rnn.weight_ih_l0 f4 [512, 64]
0.0005604684 -0.00047254973 -0.02581251 -0.015957626 0.022838814 0.09826457 -0.025575282 -0.0049570347
-0.015298611 0.004756054 -0.011846952 -0.0018414941 -0.00072111614 -0.0015730014 0.022693982 0.21130973
-0.00026968255 -0.0057583866 0.008016644 0.007291722 -0.039625492 0.05340559 -0.00040361448 0.10310343
0.006985374 0.04710075 -0.017175185 0.00021532546 -0.0032002376 -0.0014248937 0.00024985833 -0.00020747063
-0.056369506 0.031950213 0.00036321278 0.035756815 -0.0010495574 0.0010672269 0.0013973796 0.048222926
0.26844445 -0.007991893 -0.0020583803 -0.009512447 0.0030269988 0.15578116 -0.0020518717 -0.0026385838
-0.002529877 0.042764913 -0.011088289 -0.09117488 1.0640583e-06 0.039934464 -0.0018276398 0.06888112
0.009607955 0.0146852825 8.386256e-05 -0.019192938 -0.15540071 -0.19108465 -0.003742722 0.06267922
-0.0010408881 0.00013754994 0.03594593 0.0637101 0.020343695 0.028226126 0.061443295 -0.004933443
0.013022982 0.003580699 0.02626013 -0.00035846524 0.0015370803 0.01789293 -0.010063281 0.03756682
-0.00076308596 0.01865502 0.0007780303 0.011723564 -0.02141887 0.009750532 -0.000412975 0.022070644
0.0061477763 0.04723561 0.041083038 0.001749444 0.0008054324 -0.001469138 -0.0031726614 0.03560179
0.051733725 0.020376327 0.00095536077 -0.09297765 0.0158592 -0.00094505487 0.0001471997 0.07779837
-0.005759882 0.0034669465 0.0010802501 0.028455632 -0.00022227973 -0.025268318 -0.0021546795 0.0015990876
-0.0026728483 0.0055139773 -0.0033083519 -0.14977698 8.51296e-07 0.0077402545 0.00069916155 0.081646085
0.019027313 0.045212205 -0.00057285716 -0.04345207 0.017659284 0.21374764 0.007822643 0.0049593993
-0.00036490633 0.000702477 -0.019987267 -0.05737168 0.011045535 0.03927649 -0.0622138 -0.0016898672
0.007642315 -0.004039614 0.024794208 0.0037118706 -0.012545272 0.008406793 -0.0047293515 -0.07589909
0.0011170352 0.059651382 0.0006741644 -0.02263163 -0.057654165 0.037185803 0.0004875287 0.16339225
0.012040928 -0.036093343 0.081548296 0.00016075044 0.00023036695 -0.00014824403 0.00065639254 -0.04976744
0.1607766 0.08657737 0.0020536075 0.04409808 0.0030147089 0.00093728525 0.0013013592 0.08072221
0.085741065 0.023385622 0.001145258 0.027420614 0.00015627171 0.051253356 0.00047819345 0.0010443341
0.00076645287 0.019611336 0.0032801656 0.036649 -8.482877e-05 0.026594866 -0.00015416123 0.037038915
0.0014656725 -0.043002702 -0.0020748242 -0.04578213 0.043302357 -0.09814142 -0.0019927917 0.023658233
-0.0005870459 -0.0025728669 0.059521124 -0.014687416 -0.004085844 0.033332217 -0.073753 0.0017423304
0.0072179683 0.0023818403 0.007948169 0.00071146723 -0.001105295 0.010177502 0.00033386584 0.06710972
0.0009141944 -0.004621584 -0.003915296 -0.0037505543 -0.004125408 0.0093049975 -7.9079975e-05 0.093094416
0.006463119 0.023091257 -0.033618573 -0.00047095175 -0.0049019544 -0.0019558684 -0.0001597169 0.044988137
0.07760062 0.0076667503 9.477098e-05 0.110474125 1.7299539e-05 -0.0006098428 0.00026567094 -0.0009867975
0.10659539 0.0018710094 2.6805741e-05 -0.0012718276 -0.0015367625 0.16603875 0.0006464604 -0.0011224779
0.0069753393 -0.004616315 -0.011989977 0.031444266 -1.7028891e-07 0.062456764 -0.00136351 -0.016629826
0.011885782 0.0070908344 -6.5504726e-05 -0.018952915 0.031248426 -0.08208898 0.0029660938 -0.0013557933
00000000: 66ec 123a 8dc0 f7b9 c274 d3bc 91b9 82bc
00000010: 7718 bb3c ef3e c93d 4183 d1bc 9f6e a2bb
00000020: 06a7 7abc acd8 9b3b b819 42bc 4a5e f1ba
00000030: 4909 3dba 2b2d ceba bbe8 b93c 9461 583e
00000040: 2e64 8db9 d9b0 bcbb 3e58 033c 66ef ee3b
00000050: 574e 22bd d2bf 5a3d 389c d3b9 e427 d33d
00000060: 90e5 e43b b7ec 403d f9b2 8cbc fdc8 6139
00000070: 14bb 51bb 80c3 baba 6bff 8239 798c 59b9
00000080: b6e3 66bd 3ade 023d 986d be39 bd75 123d
00000090: 4d91 89ba 31e2 8b3a 4728 b73a 6785 453d
000000a0: 8d71 893e 6ef0 02bc e4e5 06bb 18da 1bbc
000000b0: 9d60 463b 1985 1f3e b278 06bb 17ec 2cbb
000000c0: 4bcc 25bb 432a 2f3d a8ab 35bc e5b9 babd
000000d0: c4d0 8e35 5292 233d 6a8d efba 8b11 8d3d
000000e0: af6a 1d3c 8a9a 703c 5edf af38 823a 9dbc
000000f0: 5d21 1fbe b2ab 43be 7548 75bb f75d 803d
00000100: 696e 88ba 483b 1039 0a3c 133d 717a 823d
00000110: d2a7 a63c 7a3a e73c f7ab 7b3d b8a8 a1bb
00000120: 585e 553c 29aa 6a3b 7c1f d73c 64f0 bbb9
00000130: db77 c93a 3294 923c 76e0 24bc aadf 193d
00000140: d509 48ba 6ad2 983c bbf4 4b3a 3114 403c
00000150: a076 afbc b2c0 1f3c 9184 d8b9 7fcd b43c
00000160: 4973 c93b 217a 413d b046 283d 9a4d e53a
00000170: a723 533a 1790 c0ba 6dec 4fbb 2fd3 113d
00000180: bee6 533d 41ec a63c 2d71 7a3a 116b bebd
00000190: 27eb 813c 8fbd 77ba 9e59 1a39 c054 9f3d
000001a0: 64bd bcbb b635 633b 2e97 8d3a c91b e93c
000001b0: c313 69b9 81ff cebc 8635 0dbb 7a98 d13a
000001c0: f42a 2fbb 98ae b43b efd0 58bb 235f 19be
000001d0: 9e84 6435 f6a1 fd3b f047 373a 1036 a73d
000001e0: 2bdf 9b3c 6f30 393d cb2b 16ba ccfa 31bd
000001f0: 34aa 903c a9e0 5a3e 8b2a 003c 7582 a23b
00000200: e650 bfb9 6f26 383a 56bc a3bc 91fe 6abd
00000210: 55f8 343c 63e0 203d e6d3 7ebd 897e ddba
00000220: 626c fa3b bd5e 84bb 391d cb3c db42 733b
00000230: af8a 4dbc a5bc 093c adf8 9abb fb70 9bbd
00000240: 7b69 923a 0255 743d 68ba 303a f865 b9bc
00000250: c626 6cbd 2450 183d ff9a ff39 4c50 273e
00000260: 5047 453c 9dd6 13bd cb02 a73d 1e8f 2839
00000270: a88e 7139 f471 1bb9 c211 2c3a f1d8 4bbd
00000280: 9fa2 243e 7a4f b13d d195 063b 30a0 343d
00000290: 6c92 453b 26b4 753a 5e92 aa3a b051 a53d
000002a0: 0399 af3d 3493 bf3c 7b1c 963a 32a1 e03c
000002b0: dedc 2339 0aef 513d 0ab6 fa39 0ae2 883a
000002c0: c8eb 483a f4a7 a03c 0cf8 563b 431d 163d
000002d0: 19e6 b1b8 7add d93c 57a6 21b9 1eb6 173d
000002e0: cf1b c03a 9a23 30bd c6f9 07bb 0b86 3bbd
000002f0: d05d 313d 5efe c8bd 7f99 02bb e9ce c13c
00000300: fce3 19ba 8b9d 28bb 6ccc 733d 7da3 70bc
00000310: 8be2 85bb 5d87 083d d00b 97bd e85e e43a
00000320: b584 ec3b a618 1c3b 0939 023c c281 3a3a
00000330: 8cdf 90ba 8abf 263c b70a af39 d270 893d
00000340: 8ca6 6f3a a870 97bb e24b 80bb dccb 75bb
00000350: 6e2e 87bb fd73 183c bdd7 a5b8 49a8 be3d
00000360: 92c8 d33b e029 bd3c a1b3 09bd 13ea f6b9
00000370: 93a0 a0bb 072e 00bb ae79 27b9 7b45 383d
00000380: 13ed 9e3d 5d39 fb3b c8bf c638 4240 e23d
00000390: 7a1e 9137 dcdd 1fba c049 8b39 6e57 81ba
000003a0: af4e da3d a83c f53a e4dc e037 74b3 a6ba
000003b0: 316d c9ba 1006 2a3e 3977 293a 1c20 93ba
000003c0: 6391 e43b 7544 97bb 9c71 44bc b4cb 003d
000003d0: a9d8 36b4 aad2 7f3d ceb7 b2ba 463b 88bc
000003e0: 95bc 423c 3b5a e83b 955f 89b8 2543 9bbc
000003f0: b3fc ff3c 441e a8bd cc62 423b e0b4 b1ba

rnn.weight_hh_l0 f4 [512, 128]
0.047504835 0.043852556 -0.15166508 -0.07842456 0.050362915 -0.049236897 0.20083627 -0.084025614
-0.20690943 -0.15953778 -0.088181086 -0.18015999 0.005789652 -0.062396888 -0.06845033 0.03161893
-0.06684031 0.0652049 0.09342516 0.023063168 -0.17509644 0.014669243 -0.035707876 -0.025180653
-0.042049393 0.11339859 -0.07514816 0.026662668 -0.052316822 0.033057347 0.063559726 -0.054439854
0.18067895 0.19431105 -0.04340026 -0.0042470107 -0.072749786 0.03935583 0.08247703 0.037123587
-0.009915264 -0.08924254 -0.07685673 -0.045176484 0.03026669 0.034000885 -0.088683054 -0.0076613473
-0.01782022 0.01479075 -0.08919377 -0.015910227 -0.06907761 0.060688805 0.07330233 0.05858212
-0.21647105 0.12114823 -0.072821625 0.105149366 -0.07718296 0.0663008 0.021646097 0.24391842
0.043158967 0.18334357 0.09293305 -0.0073686005 0.048386145 -0.010026738 -0.016032083 0.116605565
0.03307654 0.042192932 -0.011247278 -0.12197754 -0.007970199 -0.06426257 0.08112398 0.020159049
-0.122843295 -0.02697249 0.095963545 -0.13014099 0.08763953 -0.041700743 0.027566597 0.017285889
0.1639334 0.17561837 0.017449357 -0.15475765 -0.035165347 0.053333197 -0.034630448 0.0141524775
-0.04804122 -0.05531727 -0.0122375665 -0.022385849 -0.08746959 -0.019693313 -0.11712939 -0.10209607
-0.26232383 -0.065938756 -0.045422383 -0.050327267 0.03973115 0.12442702 0.07048003 -0.10835636
-0.0059815138 0.09320378 -0.010014467 0.06716898 -0.00824026 -0.06353822 -0.09168836 0.03915508
-0.05938197 -0.009803299 -0.16659354 -0.06834122 -0.1093281 0.08065418 -0.017971486 -0.009401923
0.097483285 0.09651611 0.029323991 -0.008828146 -0.12496615 -0.0967806 0.14387287 0.0053867945
-0.02851907 -0.08232453 0.02490973 -0.068898626 0.026566757 -0.1669741 -0.0045856996 -0.056715567
-0.0071898913 -0.041473985 -0.032917023 0.038736146 0.03781769 0.057442885 0.03757074 -0.021311514
-0.000365027 0.11092898 -0.02767681 0.011076002 -0.09248696 0.08490877 -0.044475093 -0.015744215
0.0087216785 0.14752936 -0.05903593 -0.096844494 -0.012117291 -0.015869157 -0.024316864 0.054732542
-0.035152927 0.04169964 0.045370992 -0.03806768 0.13909099 0.112227514 -0.06297951 -0.027093116
-0.049665496 0.090612195 0.07038711 -0.07546872 -0.024791393 0.043203916 -0.06388344 0.042572252
-0.03523698 -0.004991603 -0.063678585 -0.06631613 -0.013116412 0.016618313 0.036189407 0.13223214
0.00047161046 0.046864636 0.062537104 0.07248778 -0.0008484274 0.012516284 0.028104903 0.0066617313
0.07962421 0.04764313 0.026162468 0.15729684 0.050511293 -0.091632456 0.09410332 -0.022630747
0.08081611 -0.023285372 0.06315185 -0.001841079 0.020465532 -0.026162406 -0.020321246 0.014144259
0.024664927 0.040711183 0.10767976 0.013993306 -0.05581077 0.004420715 0.044470746 0.10436616
-0.16520442 -0.085566446 0.044443157 -0.008464721 0.10034708 -0.0021129097 -0.13717122 0.054583263
-0.069684684 -0.025718698 -0.09333431 0.019209813 0.03662448 -0.0030449321 0.03249654 -0.078178234
-0.012896734 0.04847155 -0.07125367 0.0024191092 -0.12076337 0.051030457 -0.04051654 0.016005456
-0.04326981 -0.056190126 -0.09847782 -0.016044468 0.05136214 -0.046100006 -0.011661636 -0.04115529
00000000: 6e94 423d bd9e 333d 174e 1bbe 0e9d a0bd
00000010: 5849 4e3d a1ac 49bd 06a8 4d3e 9f15 acbd
00000020: 11e0 53be df5d 23be 4998 b4bd dc7b 38be
00000030: 1fb7 bd3b e193 7fbd b02f 8cbd da82 013d
00000040: 93e3 88bd 268a 853d b155 bf3d f8ee bc3c
00000050: 7b4c 33be 4457 703c 6c42 12bd a847 cebc
00000060: fc3b 2cbd 853d e83d 47e7 99bd ab6b da3c
00000070: 2a4a 56bd 2467 073d 9a2b 823d 53fc 5ebd
00000080: e703 393e 7af9 463e 79c4 31bd 822a 8bbb
00000090: d7fd 94bd 9433 213d b8e9 a83d e70e 183d
000000a0: a273 22bc cbc4 b6bd 1067 9dbd fa0a 39bd
000000b0: d9f1 f73c 8344 0b3d 769f b5bd 0a0c fbbb
000000c0: b6fb 91bc e754 723c 39ab b6bd 2a56 82bc
000000d0: 9078 8dbd d394 783d 881f 963d cef3 6f3d
000000e0: 96aa 5dbe 901c f83d 8123 95bd 8d58 d73d
000000f0: 1a12 9ebd b7c8 873d 2853 b13c c0c5 793e
00000100: 75c7 303d 6bbe 3b3e af53 be3d 4d74 f1bb
00000110: 8d30 463d 3047 24bc b755 83bc e6ce ee3d
00000120: 447b 073d 7fd2 2c3d 8146 38bc 5ccf f9bd
00000130: 7095 02bc 189c 83bd 5424 a63d 9724 a53c
00000140: 4495 fbbd 69f5 dcbc 8988 c43d ae43 05be
00000150: 5b7c b33d 66ce 2abd 58d3 e13c 239b 8d3c
00000160: 28de 273e 4dd5 333e f4f1 8e3c ca78 1ebe
00000170: 8a09 10bd e973 5a3d a8d8 0dbd cbdf 673c
00000180: dfc6 44bd 5d94 62bd 1380 48bc 8762 b7bc
00000190: 4223 b3bd df53 a1bc 89e1 efbd bf17 d1bd
000001a0: 4f4f 86be e60a 87bd d20c 3abd f723 4ebd
000001b0: 21bd 223d 98d3 fe3d d557 903d f0e9 ddbd
000001c0: 9300 c4bb a0e1 be3d b813 24bc e48f 893d
000001d0: 2802 07bc 5420 82bd 1bc7 bbbd 1461 203d
000001e0: 823a 73bd 049e 20bc 7f97 2abe 7bf6 8bbd
000001f0: 69e7 dfbd 052e a53d f038 93bc 860a 1abc
00000200: 51a5 c73d 3daa c53d de38 f03c eea3 10bc
00000210: 41ee ffbd e834 c6bd 6953 133e b583 b03b
00000220: d3a0 e9bc c399 a8bd 7d0f cc3c b91a 8dbd
00000230: 87a2 d93c 42fb 2abe a343 96bb 954e 68bd
00000240: 2e99 ebbb a0e0 29bd 00d4 06bd cba9 1e3d
00000250: b9e6 1a3d 3b49 6b3d c7e3 193d 7c95 aebc
00000260: 1861 bfb9 bc2e e33d 7aba e2bc 1f78 353c
00000270: ce69 bdbd a6e4 ad3d 842b 36bd 03fa 80bc
00000280: 5fe5 0e3c f011 173e a9cf 71bd 6856 c6bd
00000290: 9a87 46bc 0900 82bc 2934 c7bc 3b2f 603d
000002a0: 84fc 0fbd 3ecd 2a3d efd6 393d dbec 1bbd
000002b0: de6d 0e3e 8ad7 e53d 67fb 80bd 62f2 ddbc
000002c0: 0c6e 4bbd e392 b93d 1e27 903d 588f 9abd
000002d0: 5217 cbbc 97f6 303d 52d5 82bd 3e60 2e3d
000002e0: a754 10bd 9a90 a3bb eb69 82bd c0d0 87bd
000002f0: 38e6 56bc 2123 883c 583b 143d dd67 073e
00000300: 7c42 f739 22f5 3f3d 7413 803d 7974 943d
00000310: 0069 5eba 1a11 4d3c 413c e63c a74a da3b
00000320: 0512 a33d 7125 433d ac52 d63c 6c12 213e
00000330: eee4 4e3d cca9 bbbd 3eb9 c03d 1e64 b9bc
00000340: eb82 a53d f7c0 bebc c255 813d 5c50 f1ba
00000350: 55a7 a73c 8b52 d6bc be78 a6bc 52bd 673c
00000360: 1a0e ca3c c5c0 263d 3587 dc3d 2e44 653c
00000370: d599 64bd a5db 903b f526 363d edbd d53d
00000380: 592b 29be 763d afbd 070a 363d 9daf 0abc
00000390: c582 cd3d be78 0abb 9d76 0cbe b392 5f3d
000003a0: d8b6 8ebd 05b0 d2bc 0f26 bfbd e65d 9d3c
000003b0: 8d03 163d 7c8d 47bb 181b 053d e91b a0bd
000003c0: d34c 53bc 1b8a 463d 72ed 91bd eb89 1e3b
000003d0: c952 f7bd 5005 513d acf4 25bd e01d 833c
000003e0: af3b 31bd 9e27 66bd bdae c9bd b06f 83bc
000003f0: 1b61 523d 5cd3 3cbd 7210 3fbc 7392 28bd

rnn.bias_ih_l0 f4 [512]
0.47269678 0.6313119 0.47834307 0.43924928 0.39968824 0.4501644 0.7403936 0.5342541
0.47368363 0.08567059 0.45233184 0.6426858 0.56561744 0.8694867 0.7069049 0.47784323
0.17556073 0.33221683 0.44137883 0.43892267 0.56513476 0.2131319 0.4443997 0.4120108
0.3076285 0.64414024 0.5170136 0.22679317 0.7251663 0.6705566 0.48574924 0.45976385
0.15505618 0.5233772 0.42209095 0.63694066 0.25320327 0.49774623 0.48231205 0.3581988
0.516556 0.52154124 0.5302329 0.6092668 0.1067248 0.43270528 0.5393715 0.5006189
0.6592016 0.58403134 0.4423541 0.5490478 0.51106876 0.3138769 0.37360594 0.23234476
0.41136685 0.55150497 0.34492865 0.32938847 0.7066078 0.5804354 0.54119295 0.695904
0.50661343 0.5082415 0.38224453 0.54097104 0.27149922 0.21151356 0.6646174 0.43512523
0.66615266 0.57093483 0.38967836 0.35387558 0.48965067 0.36151296 0.77178484 0.35994902
0.5226351 0.48542815 0.42071632 0.35736686 0.46114644 0.6104916 0.31400478 0.51843435
0.30857313 0.55338943 0.7944145 0.44593358 0.72019535 0.5895033 0.48921517 0.4619688
0.48384038 0.5958022 0.5063022 0.07136321 -0.031187784 0.3770714 0.5518879 0.4521356
0.5853959 0.33887002 0.5404245 0.26449072 0.45919928 0.57373875 0.5262727 0.6470749
0.70724577 0.41695032 0.3750497 0.68710536 0.5798153 0.65410286 0.60443413 0.69972074
0.4958311 0.38257578 0.49128133 0.50350344 0.1447153 0.19130069 0.5304536 0.5893052
-0.07534351 -0.24388176 -0.23042673 -0.13786873 -0.21421213 0.036975194 -0.22314377 -0.18358119
-0.11455585 -0.074461706 -0.2953086 -0.19483973 -0.13428783 -0.19484562 -0.27156657 -0.22321174
-0.13308318 -0.015426748 -0.21886842 -0.1609368 -0.26224133 0.09463841 -0.19941986 -0.19293182
-0.20720653 -0.20429152 -0.17706925 -0.09233787 -0.25207123 -0.2050198 -0.24113297 -0.104995966
-0.24069591 -0.1511589 -0.20699976 -0.16321762 -0.21681999 -0.18532102 -0.253868 -0.20607212
-0.09702781 -0.18550824 -0.2007085 -0.17396498 0.08722033 -0.13609144 -0.2779313 -0.10276172
-0.30670187 -0.17307067 -0.10986148 -0.26800334 -0.33534583 -0.24036658 -0.2752059 -0.06226339
-0.22533235 -0.18512826 -0.2650389 -0.20551918 -0.28093916 -0.21785934 -0.11917211 -0.19992962
-0.16521776 -0.15207614 -0.22167234 -0.1489923 -0.18517661 -0.23231381 -0.17094764 -0.22744772
-0.18977502 -0.19226994 -0.1931346 -0.120563924 -0.18285502 -0.29265702 -0.25329638 -0.17833787
-0.26320502 -0.12886773 -0.26880917 -0.07325619 -0.07513594 -0.20640232 -0.071787246 -0.1746652
-0.06409487 -0.17951204 -0.2300266 -0.18647794 -0.17774393 -0.18858333 -0.29543278 -0.10572108
-0.11054089 -0.2666453 -0.2359292 0.053714946 -0.2767068 -0.112271436 -0.16271615 -0.24999821
-0.20109616 -0.13656315 -0.20088984 -0.20321192 -0.17382134 -0.19683483 -0.19384965 -0.19020322
-0.22375196 -0.16989416 -0.12585826 -0.2691845 -0.38044766 -0.1939804 -0.29033616 -0.31361654
-0.21833292 -0.19922973 -0.20870958 -0.16129738 -0.18036683 0.07648907 -0.15939683 -0.2440393
00000000: 5005 f23e a89d 213f 62e9 f43e 48e5 e03e
00000010: f0a3 cc3e f37b e63e 6f8a 3d3f e0c4 083f
00000020: a986 f23e 1074 af3d 0a98 e73e 0e87 243f
00000030: 4ecc 103f ae96 5e3f b8f7 343f dea7 f43e
00000040: 31c6 333e 5318 aa3e 68fc e13e 79ba e03e
00000050: acac 103f 403f 5a3e 5c88 e33e 14f3 d23e
00000060: 7c81 9d3e 60e6 243f 015b 043f 783c 683e
00000070: 80a4 393f 99a9 2b3f 20b4 f83e 2b66 eb3e
00000080: 0cc7 1e3e 0cfc 053f 4e1c d83e 8b0e 233f
00000090: dca3 813e 98d8 fe3e 9bf1 f63e d565 b73e
000000a0: 043d 043f ba83 053f 58bd 073f e9f8 1b3f
000000b0: 8892 da3d 8c8b dd3e 4014 0a3f 8f28 003f
000000c0: 70c1 283f 1483 153f 3d7c e23e 668e 0c3f
000000d0: 67d5 023f 79b4 a03e 4749 bf3e c9eb 6d3e
000000e0: ad9e d23e 6e2f 0d3f 7d9a b03e 9ba5 a83e
000000f0: 40e4 343f 6a97 143f 9f8b 0a3f c426 323f
00000100: 6bb1 013f 1d1c 023f 8eb5 c33e 147d 0a3f
00000110: f201 8b3e 0397 583e 5e24 2a3f bcc8 de3e
00000120: fb88 2a3f c928 123f ec83 c73e 2e2f b53e
00000130: 7eb3 fa3e 3a18 b93e b193 453f 3d4b b83e
00000140: 6acb 053f 0a8a f83e 2168 d73e caf8 b63e
00000150: 631b ec3e 2d49 1c3f 3cc5 a03e 1db8 043f
00000160: 4cfd 9d3e eeaa 0d3f c05e 4b3f 6851 e43e
00000170: b95e 383f b0e9 163f 697a fa3e 2d87 ec3e
00000180: edb9 f73e 7e86 183f 059d 013f e026 923d
00000190: 867d ffbc 810f c13e 8748 0d3f 517e e73e
000001a0: 81dc 153f 5f80 ad3e 4359 0a3f 546b 873e
000001b0: 2b1c eb3e 8be0 123f cfb9 063f b3a6 253f
000001c0: 0f0e 353f 837a d53e 8406 c03e 23e6 2f3f
000001d0: c76e 143f 4973 273f 32bc 1a3f e620 333f
000001e0: 93dd fd3e f9e0 c33e 3a89 fb3e 9ae5 003f
000001f0: 3f30 143e 54e4 433e cfcb 073f b5dc 163f
00000200: b34d 9abd 24bc 79be fcf4 6bbe 762d 0dbe
00000210: 6d5a 5bbe 4d73 173d cd7f 64be b5fc 3bbe
00000220: 429c eabd 617f 98bd b032 97be 1184 47be
00000230: c082 09be 9c85 47be c60a 8bbe 9e91 64be
00000240: f546 08be 79c0 7cbc 0b1f 60be 9ecc 24be
00000250: 7f44 86be c8d1 c13d b834 4cbe eb8f 45be
00000260: f32d 54be cc31 51be a451 35be a31b bdbd
00000270: 7b0f 81be b6f0 51be 90eb 76be 2008 d7bd
00000280: fd78 76be 66c9 1abe bff7 53be 8522 27be
00000290: 0f06 5ebe cbc4 3dbe fdfa 81be 9204 53be
000002a0: 84b6 c6bd dff5 3dbe 8786 4dbe e023 32be
000002b0: 93a0 b23d 8e5b 0bbe 034d 8ebe bd74 d2bd
000002c0: 0708 9dbe 7039 31be 0eff e0bd bc37 89be
000002d0: 73b2 abbe a822 76be cae7 8cbe e507 7fbd
000002e0: 86bd 66be 4392 3dbe 2eb3 87be 9f73 52be
000002f0: 42d7 8fbe 8516 5fbe 8210 f4bd 5aba 4cbe
00000300: d82e 29be d9b9 1bbe 13fe 62be 7091 18be
00000310: f09e 3dbe ace3 6dbe e60c 2fbe 0ee8 68be
00000320: 6254 42be 69e2 44be 14c5 45be 38ea f6bd
00000330: 593e 3bbe 24d7 95be 10b0 81be 349e 36be
00000340: cfc2 86be e7f5 03be 5ba1 89be 5707 96bd
00000350: dfe0 99bd 215b 53be 3105 93bd 6fdb 32be
00000360: 2c44 83bd 01d2 37be 188c 6bbe 13f4 3ebe
00000370: 8102 36be fd1b 41be f742 97be 4b84 d8bd
00000380: 4363 e2bd bc85 88be 6d97 71be 3404 5c3d
00000390: 84ac 8dbe 91ee e5bd 109f 26be 88ff 7fbe
000003a0: 27ec 4dbe 36d7 0bbe 11b6 4dbe c916 50be
000003b0: 39fe 31be 128f 49be 8680 46be a2c4 42be
000003c0: 3c1f 65be bcf8 2dbe fde0 00be 8dd2 89be
000003d0: 09ca c2be cca2 46be f1a6 94be 5992 a0be
000003e0: aa92 5fbe e102 4cbe f7b7 55be 242b 25be
000003f0: 15b2 38be 4da6 9c3d ec38 23be 70e5 79be

rnn.bias_hh_l0 f4 [512]
0.47294003 0.6311619 0.4787232 0.43925363 0.39969233 0.45014247 0.7403519 0.53443867
0.47377655 0.08626736 0.45232204 0.6426242 0.5655161 0.86948514 0.706802 0.47785434
0.17593251 0.33220488 0.44114468 0.43834436 0.56520694 0.21313189 0.44427633 0.41200897
0.30744356 0.64413756 0.51699334 0.22673252 0.7251638 0.670553 0.4857814 0.45998088
0.15494204 0.52337337 0.42219713 0.6369903 0.2531275 0.49798232 0.48231938 0.3582911
0.5168896 0.5210133 0.5304817 0.60970414 0.106213406 0.4323391 0.5393301 0.50061756
0.6592547 0.5840271 0.4423558 0.5490592 0.51028275 0.313877 0.37349728 0.2325239
0.41099387 0.55151 0.3448774 0.32933614 0.70688117 0.5805083 0.5412 0.6958666
0.50660604 0.5082801 0.38215825 0.54107094 0.2708956 0.21149741 0.6645808 0.43502444
0.66536987 0.5709639 0.38975394 0.35396868 0.4900896 0.36154613 0.77200174 0.35990864
0.522655 0.48542035 0.4207056 0.35749158 0.4611985 0.61045355 0.31398693 0.5184337
0.30942836 0.55341303 0.794449 0.44594836 0.7201099 0.58948845 0.48923206 0.46195126
0.48375085 0.59583277 0.5062938 0.07136326 -0.031200005 0.37707168 0.55240947 0.4521256
0.58539337 0.3388733 0.54023075 0.26465875 0.45919937 0.5738926 0.5262428 0.6470488
0.70728296 0.41695058 0.37499848 0.6870893 0.5798403 0.65409833 0.6044911 0.6997242
0.49589267 0.38248318 0.49121624 0.50392973 0.14467436 0.19097869 0.530669 0.58917075
-0.07531229 -0.2439083 -0.23043194 -0.1378688 -0.21414258 0.03697672 -0.22318377 -0.18367627
-0.11459267 -0.07452737 -0.29532835 -0.19494723 -0.13435052 -0.19485004 -0.27172023 -0.22321148
-0.13308004 -0.015426514 -0.2188696 -0.16100316 -0.2622412 0.09463841 -0.19941734 -0.19293185
-0.2070926 -0.20429331 -0.17706956 -0.092337005 -0.25210956 -0.20501934 -0.24113172 -0.10501868
-0.24075815 -0.15078989 -0.20692185 -0.16321138 -0.2168226 -0.18533932 -0.25386786 -0.20608252
-0.097084545 -0.18535398 -0.20059392 -0.17351186 0.093549594 -0.13605635 -0.27793065 -0.10276167
-0.30683663 -0.17308345 -0.10986141 -0.26800346 -0.33576855 -0.24036658 -0.2751986 -0.062307067
-0.22522481 -0.18512978 -0.26503852 -0.20547545 -0.28093833 -0.21783966 -0.119173 -0.1998975
-0.16521782 -0.15184522 -0.22161558 -0.14911684 -0.18523034 -0.23231393 -0.17094468 -0.22745635
-0.18968281 -0.19231504 -0.19312856 -0.120566234 -0.18287359 -0.2926673 -0.25272214 -0.17827514
-0.26319554 -0.12886734 -0.26879874 -0.07323686 -0.075081624 -0.20642218 -0.07178725 -0.17466262
-0.06406345 -0.1795145 -0.23008873 -0.18646607 -0.17785862 -0.18857749 -0.29530904 -0.10572077
-0.11021533 -0.26669347 -0.23593126 0.05371494 -0.27670652 -0.112271465 -0.16291092 -0.24999791
-0.20109689 -0.13656288 -0.20088194 -0.20320858 -0.17382146 -0.19697493 -0.19385186 -0.1902292
-0.2236947 -0.16989401 -0.12594666 -0.26918513 -0.3804469 -0.19397956 -0.29038 -0.31361976
-0.21834627 -0.1992121 -0.20870188 -0.16062205 -0.18068773 0.07601922 -0.15933679 -0.24411201
00000000: 3225 f23e d493 213f 351b f53e dae5 e03e
00000010: 79a4 cc3e 1379 e63e b487 3d3f f9d0 083f
00000020: d792 f23e f1ac b03d c196 e73e 0583 243f
00000030: aac5 103f 9496 5e3f faf0 343f 53a9 f43e
00000040: a727 343e c216 aa3e b7dd e13e ac6e e03e
00000050: 67b1 103f 3f3f 5a3e 3078 e33e d7f2 d23e
00000060: 3e69 9d3e 33e6 243f ad59 043f 922c 683e
00000070: 56a4 393f 5da9 2b3f 57b8 f83e 9d82 eb3e
00000080: 20a9 1e3e ccfb 053f 392a d83e cc11 233f
00000090: ed99 813e 8af7 fe3e 91f2 f63e ee71 b73e
000000a0: e052 043f 2161 053f a6cd 073f 9215 1c3f
000000b0: 6a86 d93d 8d5b dd3e 8a11 0a3f 7928 003f
000000c0: ebc4 283f cd82 153f 767c e23e 258f 0c3f
000000d0: e4a1 023f 7cb4 a03e 093b bf3e bf1a 6e3e
000000e0: ca6d d23e c22f 0d3f c593 b03e bf9e a83e
000000f0: 2af6 343f 319c 143f 158c 0a3f 5024 323f
00000100: efb0 013f a51e 023f 3faa c33e a083 0a3f
00000110: d4b2 8a3e c792 583e f821 2a3f 86bb de3e
00000120: ae55 2a3f b12a 123f d48d c73e 623b b53e
00000130: 06ed fa3e 931c b93e e8a1 453f f245 b83e
00000140: b8cc 053f 0489 f83e b966 d73e 2309 b73e
00000150: 3622 ec3e af46 1c3f e5c2 a03e 12b8 043f
00000160: 656d 9e3e 7aac 0d3f 0261 4b3f 5853 e43e
00000170: 1f59 383f b7e8 163f a07c fa3e e084 ec3e
00000180: 31ae f73e 7f88 183f 789c 013f e726 923d
00000190: 2797 ffbc 8a0f c13e b56a 0d3f 027d e73e
000001a0: 57dc 153f cd80 ad3e 904c 0a3f 5a81 873e
000001b0: 2e1c eb3e a0ea 123f d9b7 063f fda4 253f
000001c0: 7f10 353f 8c7a d53e cdff bf3e 16e5 2f3f
000001d0: 6a70 143f fd72 273f eebf 1a3f 2021 333f
000001e0: a5e5 fd3e d6d4 c33e b280 fb3e 8a01 013f
000001f0: 8425 143e eb8f 433e ecd9 073f e5d3 163f
00000200: 543d 9abd 19c3 79be 5af6 6bbe 7b2d 0dbe
00000210: 3148 5bbe e774 173d 498a 64be a215 3cbe
00000220: 90af eabd cea1 98bd 4735 97be 3fa0 47be
00000230: 2f93 09be c586 47be ea1e 8bbe 8d91 64be
00000240: 2246 08be 7dbf 7cbc 5a1f 60be 03de 24be
00000250: 7b44 86be c8d1 c13d 0f34 4cbe ed8f 45be
00000260: 1510 54be 4432 51be b951 35be 2f1b bdbd
00000270: 8114 81be 97f0 51be 3ceb 76be 0914 d7bd
00000280: 4e89 76be aa68 1abe 52e3 53be e220 27be
00000290: be06 5ebe 97c9 3dbe f8fa 81be 4c07 53be
000002a0: 43d4 c6bd 6fcd 3dbe 7e68 4dbe 18ad 31be
000002b0: ee96 bf3d 5b52 0bbe ed4c 8ebe b674 d2bd
000002c0: b119 9dbe ca3c 31be 05ff e0bd c037 89be
000002d0: dbe9 abbe a822 76be d5e6 8cbe b235 7fbd
000002e0: 55a1 66be a992 3dbe 21b3 87be 2868 52be
000002f0: 26d7 8fbe 5c11 5fbe f910 f4bd eeb1 4cbe
00000300: dc2e 29be 507d 1bbe 32ef 62be 16b2 18be
00000310: 06ad 3dbe b4e3 6dbe 1f0c 2fbe 51ea 68be
00000320: 363c 42be 3cee 44be 7ec3 45be 6eeb f6bd
00000330: 3743 3bbe 7dd8 95be cc64 81be c28d 36be
00000340: 91c1 86be cdf5 03be fd9f 89be 35fd 95bd
00000350: 65c4 99bd 5660 53be 3205 93bd c2da 32be
00000360: b333 83bd a6d2 37be 619c 6bbe f6f0 3ebe
00000370: 9220 36be 751a 41be bf32 97be 2284 d8bd
00000380: 93b8 e1bd 0c8c 88be f797 71be 3204 5c3d
00000390: 7aac 8dbe 95ee e5bd 1fd2 26be 74ff 7fbe
000003a0: 58ec 4dbe 24d7 0bbe ffb3 4dbe e915 50be
000003b0: 41fe 31be ccb3 49be 1a81 46be 72cb 42be
000003c0: 3910 65be b2f8 2dbe 29f8 00be a2d2 89be
000003d0: f0c9 c2be 94a2 46be b0ac 94be c592 a0be
000003e0: 2a96 5fbe 42fe 4bbe f2b5 55be 1b7a 24be
000003f0: 3406 39be f7af 9b3d 2f29 23be 80f8 79be

rnn.weight_ih_l1 f4 [512, 128]
0.014699728 -0.003551622 -0.013276924 0.0095863 0.0031873072 0.006335787 -0.017345566 -0.007239132
-0.00733099 0.00078706356 0.0023672618 -0.030343147 0.018145723 0.0071545704 0.0070153037 0.010975497
-0.004221331 0.006019823 -0.01319479 -0.021839762 -0.021133492 0.01153902 0.003942888 0.013827112
-0.02754729 -0.023087963 -0.008919859 0.0059535573 0.001862068 -0.018670293 0.020404162 -0.030005215
0.011689895 -0.008794073 -0.011509384 0.010275688 -0.0073188744 -0.021268504 0.0067290626 -0.002040881
0.021307738 -0.0023209893 0.0110410685 0.016288755 -0.010301976 0.0052836956 0.005523644 0.0044198125
0.005054633 0.012757629 -0.013825754 0.005536676 -0.023827126 -0.0028125478 -0.009659034 0.003507406
0.018825268 -0.0020504042 -0.014453711 -0.0076875226 0.011740838 -0.01077535 0.030825827 -0.0048416927
-0.006030686 0.0046654344 -0.017787784 -0.0022412897 0.0017171864 0.003324122 -0.005220379 -0.009262611
-0.016652705 -0.008670509 0.0040652202 -0.0049357396 -0.034407124 0.011774228 -0.0068518664 0.01506059
-0.0075820545 0.010700555 -0.008027601 -0.0033171277 -0.0068768603 -0.01730128 -0.008633364 0.007456166
0.027447315 0.0037919404 -0.015335031 -0.021670267 0.0026046287 0.019158414 -0.013367075 -0.0114743635
0.022650983 0.020184172 -0.018945592 0.003193011 -0.020711886 -0.00718707 0.016096432 0.016343752
-0.01706371 -0.0031239649 0.0005000311 0.009001313 0.014521535 0.011139047 0.008643116 -0.02296797
0.015307522 0.016381789 -0.0031207877 -0.0004432496 0.009701465 0.004071691 -0.007474284 -0.008159444
-0.012633224 -0.012110249 -0.011098658 -5.5174558e-05 -0.010755562 0.0062383437 0.011799128 0.029223716
-0.00030712396 0.009082015 0.02209027 -0.004828847 0.015319724 -0.02102738 -0.02016876 0.008442819
0.04448133 -0.021317415 0.019497128 0.03497352 -0.009677378 0.023417363 0.024317188 -0.009485933
0.006015991 -0.0020158216 0.015708622 0.034554053 0.028202098 0.0028628453 0.0048417654 -0.020915693
-0.0034472982 -0.005926592 0.0026471382 -0.0076549477 0.027012633 0.018684579 -0.035417624 0.034619156
0.0076516424 -0.0022404578 0.01873782 -0.024563007 0.008847518 0.02627831 -0.019143121 0.025039384
-0.0090014255 -0.008318463 -0.0266935 -0.0001965564 -0.013988737 -0.03246005 -0.039844748 0.0066222516
0.0011113201 -0.011163296 -0.005852059 0.023454955 -0.0045859315 0.008906718 0.0011241989 0.016834773
0.00040762514 0.009247299 0.01905871 -0.018262917 -0.005798193 -0.024670178 -0.009565529 -0.03229721
0.010715148 -0.011507028 -0.026809927 -0.012260395 -0.00983553 -0.012840147 0.008747875 -0.0059267096
0.016541606 -0.023650741 0.020013075 0.0067499448 0.015365809 0.007431345 0.0027495767 -0.013509848
0.002345623 -0.017664181 -0.0030278142 0.011017336 -0.03812523 0.006474036 0.017044745 0.025856711
-0.033282734 -0.01925607 -0.02850074 0.014016595 0.009195078 -0.012868341 0.012575656 0.0007181598
-0.013976513 -0.0093016485 0.009972844 -0.0011635881 0.03255914 0.0149389105 0.016463187 -0.0068144347
0.018408762 -0.016465949 0.031695873 -0.015603059 0.03005506 -0.030645955 0.004502277 0.03232734
-0.019047556 -0.020131951 0.007382365 -0.0011067743 0.008494992 -0.023203392 -0.022314211 -0.0040876544
-0.0038661747 0.022298774 0.033927877 -0.0021682987 0.016821597 -0.03071075 0.021727763 -0.017909745
00000000: 21d7 703c 54c2 68bb 7587 59bc db0f 1d3c
00000010: 24e2 503b 6f9c cf3b 4a18 8ebc 3e36 edbb
00000020: cd38 f0bb f152 4e3a 1024 1b3b 3192 f8bc
00000030: 57a6 943c e370 ea3b a2e0 e53b 92d2 333c
00000040: 1753 8abb ef41 c53b f62e 58bc 4de9 b2bc
00000050: 2520 adbc 280e 3d3c 5833 813b 1c8b 623c
00000060: dbaa e1bc f822 bdbc 9a24 12bc 0f16 c33b
00000070: a210 f43a 71f2 98bc a126 a73c 7fcd f5bc
00000080: f986 3f3c 0415 10bc db91 3cbc 5c5b 283c
00000090: 2bd3 efbb 493b aebc 787f dc3b 4dc0 05bb
000000a0: 918d ae3c bd1b 18bb 99e5 343c ff6f 853c
000000b0: 9fc9 28bc da22 ad3b afff b43b 13d4 903b
000000c0: 56a1 a53b 6005 513c 6a85 62bc 016d b53b
000000d0: 1b31 c3bc b952 38bb ed40 1ebc 82dc 653b
000000e0: 7337 9a3c 1360 06bb 42cf 6cbc 9de7 fbbb
000000f0: a55c 403c 188b 30bc 7286 fc3c 10a7 9ebb
00000100: 109d c5bb 80e0 983b b0b7 91bc 9ae2 12bb
00000110: 3713 e13a 83d9 593b b70f abbb 35c2 17bc
00000120: 416b 88bc c00e 0ebc 8a35 853b fcbb a1bb
00000130: 7cee 0cbd b1e8 403c 9f85 e0bb b1c0 763c
00000140: e272 f8bb 6151 2f3c 3386 03bc 2b64 59bb
00000150: 4957 e1bb 6abb 8dbc f472 0dbc db52 f43b
00000160: 31d9 e03c 3482 783b c83f 7bbc d885 b1bc
00000170: 6bb2 2a3b 1bf2 9c3c 9301 5bbc f8fe 3bbc
00000180: 8e8e b93c 4759 a53c c933 9bbc d641 513b
00000190: f9ab a9bc 8381 ebbb aadc 833c 55e3 853c
000001a0: 32c9 8bbc 6fbb 4cbb 8514 033a 3e7a 133c
000001b0: bbeb 6d3c 8d80 363c db9b 0d3c 5327 bcbc
000001c0: 67cc 7a3c 1a33 863c 2186 4cbb f463 e8b9
000001d0: e5f2 1e3c d26b 853b d7ea f4bb 30af 05bc
000001e0: 95fb 4ebc 116a 46bc 25d7 35bc 3b6b 67b8
000001f0: 1938 30bc 056b cc3b 2151 413c 9366 ef3c
00000200: 7b05 a1b9 bbcc 143c a7f6 b43c 4e3b 9ebb
00000210: 94ff 7a3c 9d41 acbc f538 a5bc c053 0a3c
00000220: 0e32 363d dca1 aebc 71b8 9f3c 6540 0f3d
00000230: de8d 1ebc c5d5 bf3c d734 c73c e36a 1bbc
00000240: ca21 c53b e01b 04bb 5eaf 803c 8d88 0d3d
00000250: 1608 e73c 939e 3b3b aca7 9e3b 6357 abbc
00000260: 11ec 61bb db33 c2bb 9c7b 2d3b 5bd6 fabb
00000270: 9949 dd3c 6710 993c 1212 11bd d1cc 0d3d
00000280: a1ba fa3b a5d4 12bb 0f80 993c 5c38 c9bc
00000290: 2ef5 103c 9c45 d73c 09d2 9cbc 651f cd3c
000002a0: b77a 13bc 2a4a 08bc 54ac dabc b51a 4eb9
000002b0: 0431 65bc d4f4 04bd 3f34 23bd 79ff d83b
000002c0: b7a9 913a 42e6 36bc a1c2 bfbb 9b24 c03c
000002d0: 9545 96bb 7ced 113c db59 933a 14e9 893c
000002e0: 85b6 d539 fc81 173c 0321 9c3c 1d9c 95bc
000002f0: c5fe bdbb 1d19 cabc bdb8 1cbc 144a 04bd
00000300: 978e 2f3c f987 3cbc 7ea0 dbbc d3df 48bc
00000310: 3425 21bc 7b5f 52bc 3f53 0f3c d834 c2bb
00000320: 4382 873c 33bf c1bc 76f2 a33c a42e dd3b
00000330: e0c0 7b3c a482 f33b 3e32 343b 6958 5dbc
00000340: 06b9 193b 79b4 90bc 4b6e 46bb 0e82 343c
00000350: 3429 1cbd 2624 d43b 6ca1 8b3c 74d1 d33c
00000360: 7a53 08bd e8be 9dbc 627a e9bc dca5 653c
00000370: f4a6 163c bcd5 52bc 200a 4e3c e342 3c3a
00000380: bffd 64bc f165 18bc 2465 233c 8a83 98ba
00000390: bc5c 053d 55c2 743c cedd 863c 9f4b dfbb
000003a0: f9cd 963c 99e3 86bc 88d3 013d f9a3 7fbc
000003b0: 0736 f63c 3a0d fbbc d687 933b ac69 043d
000003c0: 9f09 9cbc c3eb a4bc c4e7 f13b 2f11 91ba
000003d0: 942e 0b3c 0a15 bebc 4bcc b6bc bbf1 85bb
000003e0: a65f 7dbb ebab b63c f5f7 0a3d 041a 0ebb
000003f0: 72cd 893c 1c95 fbbc 6cfe b13c 75b7 92bc

rnn.weight_hh_l1 f4 [512, 128]
0.03232702 0.020952148 0.034055125 -0.010902611 0.019799132 -0.031992607 -0.024664886 0.019108932
0.00023786277 -0.020308834 0.0045853113 0.0026532423 0.023262553 0.01203856 -0.016336108 -0.018306645
0.026827743 0.00067854085 -0.010465819 0.02115385 0.006411987 0.00802253 0.013177064 0.0026818658
0.004719555 -0.022807905 0.0022665202 0.004379535 -0.060084615 -0.0012762734 -0.0067275977 0.0022572374
-0.0015020312 0.009772378 -0.015198833 -0.027521065 -0.015521434 -0.0014308667 0.020987041 -0.007263845
0.025639998 0.021422688 0.0023251425 -0.075468555 -0.0014452131 -0.025987076 0.008949105 0.024405258
0.013155083 -0.0093873525 -0.01579677 0.04449997 0.034841176 0.010129197 0.017312473 0.00044212045
0.0013355633 0.020698482 0.021834895 -0.0006813345 -0.0136571415 0.027761236 0.0061382423 0.0008283624
-0.039713852 0.00011540518 0.020981697 -0.014550904 -0.0016603565 -0.01244811 0.014421716 0.026686221
-0.017878734 0.008381515 0.00983668 -0.027103025 -0.015951848 0.002104392 0.0018475385 -0.00042924413
-0.040957265 -0.0006569333 -0.00016614227 0.014306615 -0.011551703 0.0014736785 -0.0038551746 -0.0118644
-0.014001419 0.009102476 -0.0002389731 -0.004136192 0.0069228285 -0.01238043 0.02120827 -0.012615524
-0.025932513 0.017258756 -0.037552252 -0.013225524 -0.021068452 0.026741216 -0.01238367 0.01198046
-0.02236784 -0.005582791 -0.00078347937 0.019242587 -0.012143722 -0.0013878847 -0.01948831 -0.0004868048
0.059048306 -0.01999735 0.0068301805 0.020450119 0.009458564 0.018510597 -0.018810734 0.009322431
-0.002471493 -0.0002257259 -0.0015660778 0.0047293487 -0.02468481 0.0027398998 -0.00051870366 -0.0024586872
0.031733193 0.020688757 0.027604578 -0.0078760665 0.03154067 -0.011828779 -0.01048982 0.027328102
1.6656417e-05 -0.012001011 0.008375926 7.6779674e-05 0.030869044 0.014289999 -0.011443263 0.027506037
0.025276847 -0.00032432418 -0.008224053 0.01568898 0.0045449403 -0.033109594 0.016322574 0.013068347
0.035986826 -0.034775447 0.000767299 0.02081449 -0.07013763 -0.0005229303 -0.014400938 -0.019829068
0.0006918028 -0.005767588 -0.012574255 -0.033247855 -0.011181751 0.0008324423 0.023712657 0.034343123
0.019158108 0.016872276 -0.0036928633 -0.071809545 -0.00063144893 -0.029199418 0.01714195 0.024393443
0.026504783 -0.018990662 -0.013875967 0.042330388 0.052085392 0.026665008 0.023591347 -0.008299343
0.0020008767 -0.028855393 0.02487009 0.000423157 -0.004280597 0.0588994 -0.009120952 0.0028486038
-0.05400212 0.0013740148 0.008128597 -0.020312192 -0.0013300449 -0.014176741 -0.0121618835 0.030514333
-0.025941942 -0.014564951 0.011980188 -0.051818773 -0.009661359 -0.006268709 -0.0032403753 -0.00023155937
-0.06296433 0.0008484544 0.0057530496 0.009088527 -0.01783493 0.0034773622 -0.001133353 0.0017740689
-0.01593219 0.00012889259 -0.00018921844 -0.005274082 0.005562826 0.011386542 0.038374852 -0.002040007
-0.029029878 0.011964218 -0.04294099 -0.036185574 -0.022487996 0.043900702 -0.011893025 0.02418369
-0.03194521 0.024312468 0.0009592083 -0.0052210204 0.0044716992 -0.0002116169 -0.017612472 0.00071859884
0.058220852 0.003646759 0.0043399353 0.024599941 -0.024587614 0.016441511 -0.026515549 0.010599565
0.02629417 0.0011782026 -0.0083045885 0.0033075463 -0.015005006 -0.0038039035 -0.00046976187 -0.0006844819
00000000: 5669 043d d7a3 ab3c 637d 0b3d dda0 32bc
00000010: ca31 a23c ae0a 03bd 040e cabc 568a 9c3c
00000020: cd6a 7939 b65e a6bc 6140 963b 05e2 2d3b
00000030: 1c91 be3c 613d 453c 4dd3 85bc d1f7 95bc
00000040: dbc5 db3c 1be0 313a d478 2bbc d74a ad3c
00000050: a51b d23b ee70 033c 9de4 573c 3ec2 2f3b
00000060: 7fa6 9a3b a5d7 babc e689 143b 3482 8f3b
00000070: 491b 76bd a148 a7ba 2e73 dcbb 29ee 133b
00000080: cedf c4ba 531c 203c 8704 79bc db73 e1bc
00000090: 9d4d 7ebc eb8b bbba 04ed ab3c 8c05 eebb
000000a0: f90a d23c a27e af3c 6b61 183b 428f 9abd
000000b0: 4e6d bdba d9e2 d4bc 449f 123c 89ed c73c
000000c0: 6b88 573c 69cd 19bc 3a68 81bc 9a45 363d
000000d0: 9fb5 0e3d eef4 253c e3d2 8d3c 67cc e739
000000e0: 110e af3a dd8f a93c 18df b23c 969b 32ba
000000f0: 34c2 5fbc 886b e33c 4f23 c93b 7626 593a
00000100: feaa 22bd af05 f238 cfe1 ab3c ea66 6ebc
00000110: 52a0 d9ba 28f3 4bbc 1049 6c3c 109d da3c
00000120: 6c76 92bc 9f52 093c 072a 213c 2a07 debc
00000130: 73ad 82bc d7e9 093b 1b29 f23a 2c0c e1b9
00000140: cec2 27bd 0c36 2cba 7a36 2eb9 4b66 6a3c
00000150: 5b43 3dbc 7228 c13a 19a7 7cbb e662 42bc
00000160: 3566 65bc 8d22 153c da94 7ab9 e588 87bb
00000170: e5d8 e23b 49d7 4abc f7bc ad3c 58b1 4ebc
00000180: 6c70 d4bc 3c62 8d3c 64d0 19bd deaf 58bc
00000190: bf97 acbc 6510 db3c e0e4 4abc b149 443c
000001a0: c33c b7bc d8ef b6bb 6962 4dba a1a2 9d3c
000001b0: 76f6 46bc afe9 b5ba f3a5 9fbc d639 ffb9
000001c0: a3dc 713d 7cd1 a3bc b5cf df3b 0287 a73c
000001d0: 18f8 1a3c 89a3 973c f818 9abc 1cbd 183c
000001e0: c6f8 21bb d6b0 6cb9 da44 cdba a7f8 9a3b
000001f0: cc37 cabc e48f 333b 9df9 07ba ed21 21bb
00000200: aafa 013d 787b a93c ff22 e23c 9e0a 01bc
00000210: ca30 013d 7fcd 41bc 7edd 2bbc 2fdf df3c
00000220: 62b9 8b37 e39f 44bc 2e3b 093c c604 a138
00000230: 14e1 fc3c 9a20 6a3c 867c 3bbc 5754 e13c
00000240: 6411 cf3c 0e0a aab9 2ebe 06bc 2d86 803c
00000250: b9ed 943b ed9d 07bd ebb6 853c 9f1c 563c
00000260: ec66 133d b370 0ebd 9024 493a 2683 aa3c
00000270: 51a4 8fbd 4215 09ba e9f1 6bbc 9270 a2bc
00000280: 1a5a 353a 09fe bcbb 3f04 4ebc e72e 08bd
00000290: aa33 37bc 4238 5a3a 0c41 c23c 60ab 0c3d
000002a0: 77f1 9c3c ba37 8a3c f703 72bb e210 93bd
000002b0: d287 25ba 9e33 efbc 466d 8c3c c2d4 c73c
000002c0: 8f20 d93c 4e92 9bbc 0658 63bc a162 2d3d
000002d0: 7e57 553d 9370 da3c a442 c13c f8f9 07bc
000002e0: 2421 033b 2562 ecbc 5cbc cb3c 2cdb dd39
000002f0: 4044 8cbb 7f40 713d 0c70 15bc a4af 3a3b
00000300: 5431 5dbd 4918 b43a cf2d 053c c165 a6bc
00000310: e754 aeba 9045 68bc a342 47bc 32f9 f93c
00000320: 3284 d4bc d5a1 6ebc 8d48 443c ec3f 54bd
00000330: ad4a 1ebc be69 cdbb 7a5c 54bb bfce 72b9
00000340: 71f3 80bd d06a 5e3a 1484 bc3b 0ce8 143c
00000350: 8f1a 92bc 75e4 633b 048d 94ba e087 e83a
00000360: 3984 82bc 5727 0739 f068 46b9 35d2 acbb
00000370: 5e48 b63b 9e8e 3a3c f32e 1d3d a3b1 05bb
00000380: 11d0 edbc 9105 443c e4e2 2fbd 5337 14bd
00000390: bf38 b8bc 39d1 333d f6da 42bc e01c c63c
000003a0: fbd8 02bd f12a c73c 6173 7b3a 1815 abbb
000003b0: 5587 923b 7be5 5db9 0848 90bc 5a60 3c3a
000003c0: fd78 6e3d 77fe 6e3b 0436 8e3b d185 c93c
000003d0: f76b c9bc 59b0 863c 2337 d9bc cca9 2d3c
000003e0: df66 d73c eb6d 9a3a f80f 08bc 6bc3 583b
000003f0: 8fd7 75bc e94a 79bb 5f4a f6b9 ce6e 33ba

rnn.bias_ih_l1 f4 [512]
0.31034282 0.23648977 0.3189144 0.20781945 0.2902468 0.2638382 0.29474378 0.22353445
-0.086374 0.24944781 0.32507527 -0.052507423 0.037213445 0.1685091 0.22676958 0.28353202
0.23125286 -0.07830649 0.18283159 0.22767611 -0.013672921 0.4723714 0.34189075 0.13142669
0.41085076 0.31477064 -0.077395335 0.27142683 0.48450583 -0.08044285 0.25377905 0.20943706
-0.08144577 0.2273539 0.18556277 0.24399512 0.20376638 -0.061832234 0.18179344 0.57147807
0.18114144 0.1943379 0.023608936 0.5607588 -0.05575328 0.29044843 0.24682118 0.21737914
0.37295085 0.26823854 0.27155235 0.38950697 0.3501392 0.42637172 0.23169592 0.12874956
0.02753895 0.27228498 0.19951478 -0.090284854 0.3124171 0.2741598 0.24704225 0.34230182
0.2396573 -0.070885524 0.33267188 0.21110122 -0.07989821 0.23155198 0.29961887 0.030919427
0.21483067 0.14285254 0.17213723 0.34185112 0.22712746 0.28065175 -0.04352194 -0.08198147
0.4472626 -0.10370334 0.028828321 0.34622157 0.29902875 -0.036299106 -0.063118786 0.01657496
0.14291495 0.0871403 -0.09079583 -0.10256024 -0.014990905 0.34744248 0.43034995 0.16927893
0.3083617 0.20336878 0.44419912 0.21204972 0.27863643 0.25685817 0.26154122 0.37854397
0.26293683 0.26357907 -0.08669014 0.22817159 0.23871714 -0.09447054 0.21614559 -0.09237907
0.38447756 0.42135698 0.02269651 0.30243763 0.36382726 0.38331202 0.20453289 0.16509777
0.14559382 -0.09673704 0.25292027 0.15931301 0.26702386 -0.05934367 -0.073467985 -0.08481225
0.18850335 0.20232888 0.20351389 0.21654938 0.19497159 0.2130781 0.21780574 0.21452096
-0.030256955 0.21281324 0.020156184 -0.0243645 0.2543938 0.16950949 0.18931544 -0.15445413
0.2120399 -0.024244573 0.003413083 0.20982644 0.0053383973 -0.144107 0.17801175 -0.2280732
-0.047867145 0.16996136 -0.027046476 -0.23255253 0.18988611 -0.023436021 0.17003693 -0.22672987
-0.031573478 -0.07474916 0.1777178 0.20775671 -0.108100064 -0.03170863 0.18129648 -0.21615638
0.19368732 0.1201146 0.0076899724 0.2202802 -0.027887056 0.20670496 0.20683472 0.2280162
-0.30142614 -0.25648436 0.17414947 0.22759901 0.19887494 0.21775158 0.17145346 -0.23842567
0.0694024 -0.21168345 0.2047845 -0.02964869 -0.21467726 0.20370525 -0.038406298 -0.08594796
0.2334553 -0.027724454 -0.1607873 0.23195235 -0.029531116 0.2081788 -0.24001572 0.14520396
0.20494136 -0.3758333 0.030179117 0.20911723 0.17064327 -0.036776163 -0.021725213 -0.027342495
0.12714545 -0.040005676 -0.16388582 -0.088285424 0.22120042 -0.014891135 -0.14858943 -0.047928195
0.19658446 -0.084919155 -0.023070483 0.09823462 -0.17725076 -0.07681245 0.25641987 -0.040574573
0.19289896 0.19428359 -0.21168311 0.2029253 -0.045166954 0.20201117 0.17950234 -0.24202883
0.20110089 -0.15104942 -0.026849166 -0.19197157 0.0018154446 -0.03308892 0.20978299 -0.03557932
0.23199719 -0.19020116 -0.06020762 0.11977244 -0.18274628 0.18361866 0.17984165 0.016052337
-0.19199853 -0.035792433 0.12281095 0.03014453 0.20568317 -0.21324107 -0.023383912 -0.032083552
00000000: 41e5 9e3e 602a 723e c048 a33e 9fce 543e
00000010: 3b9b 943e cd15 873e a8e8 963e 37e6 643e
00000020: dae4 b0bd 3f6f 7f3e 4470 a63e 0612 57bd
00000030: 206d 183d a68d 2c3e 4936 683e 1c2b 913e
00000040: 8dcd 6c3e 275f a0bd 3438 3b3e ed23 693e
00000050: 6304 60bc aada f13e 4e0c af3e b894 063e
00000060: 085b d23e 9e29 a13e 7281 9ebd 75f8 8a3e
00000070: 2611 f83e 39bf a4bd 54ef 813e ab76 563e
00000080: 0acd a6bd 76cf 683e 2b04 3e3e dbd9 793e
00000090: 22a8 503e cc43 7dbd 0f28 3a3e 634c 123f
000000a0: 247d 393e 8400 473e 8767 c13c e48d 0f3f
000000b0: 8d5d 64bd a8b5 943e b1be 7c3e a398 5e3e
000000c0: 6af3 be3e 9056 893e e908 8b3e 756d c73e
000000d0: 7245 b33e 654d da3e b241 6d3e edd6 033e
000000e0: 5d99 e13c f068 8b3e 9a4d 4c3e 44e7 b8bd
000000f0: 22f5 9f3e ac5e 8c3e a5f8 7c3e 2f42 af3e
00000100: b968 753e 6e2c 91bd f853 aa3e eb2a 583e
00000110: aca1 a3bd f61b 6d3e a567 993e bd4a fd3c
00000120: 92fc 5b3e f047 123e be44 303e 1c07 af3e
00000130: 1a94 683e 96b1 8f3e 1044 32bd e7e5 a7bd
00000140: 9aff e43e 6b62 d4bd 5f29 ec3c f443 b13e
00000150: 4c1a 993e 5fae 14bd 6c44 81bd 36c8 873c
00000160: 4c58 123e 9d76 b23d 2af3 b9bd 1a0b d2bd
00000170: 6a9c 75bc fbe3 b13e d456 dc3e 7557 2d3e
00000180: 96e1 9d3e e83f 503e 116e e33e 9023 593e
00000190: 6fa9 8e3e ea82 833e bbe8 853e 84d0 c13e
000001a0: a89f 863e d6f3 863e 9a8a b1bd d0a5 693e
000001b0: 4472 743e c579 c1bd 4555 5d3e 3d31 bdbd
000001c0: 3eda c43e 1abc d73e 08ee b93c 1bd9 9a3e
000001d0: 9147 ba3e 7941 c43e 1271 513e 640f 293e
000001e0: 8c16 153e 121e c6bd c47e 813e f322 233e
000001f0: 5ab7 883e 5912 73bd 6276 96bd 0cb2 adbd
00000200: 0607 413e 4d2f 4f3e f265 503e 1fbf 5d3e
00000210: a2a6 473e 2531 5a3e 7808 5f3e 62ab 5b3e
00000220: 6fdd f7bc b7eb 593e 951e a53c 0f98 c7bc
00000230: e73f 823e e593 2d3e e8db 413e 3929 1ebe
00000240: fd20 593e 8e9c c6bc 08ae 5f3b bedc 563e
00000250: b9ed ae3b c990 13be b648 363e 058c 69be
00000260: 5710 44bd 5a0a 2e3e 9290 ddbc 4022 6ebe
00000270: 8171 423e e6fc bfbc 291e 2e3e e02b 68be
00000280: 3153 01bd 1616 99bd a8fb 353e 2dbe 543e
00000290: 9163 ddbd e9e0 01bd c9a5 393e 1958 5dbe
000002a0: f855 463e a5fe f53d 2afc fb3b 2291 613e
000002b0: 6573 e4bc 77aa 533e 7bcc 533e 147d 693e
000002c0: 8754 9abe eb51 83be 3d54 323e b70f 693e
000002d0: dfa5 4b3e 45fa 5e3e 7f91 2f3e dc25 74be
000002e0: d822 8e3d 8cc3 58be 07b3 513e cfe1 f2bc
000002f0: 5bd4 5bbe 1c98 503e ec4f 1dbd 7c05 b0bd
00000300: e80e 6f3e 651e e3bc 6da5 24be eb84 6d3e
00000310: 3deb f1bc d32c 553e aec6 75be 59b0 143e
00000320: 26dc 513e 396d c0be 323a f73c d422 563e
00000330: 1cbd 2e3e 9aa2 16bd 13f9 b1bc 5efd dfbc
00000340: 6b32 023e fedc 23bd afd1 27be fdce b4bd
00000350: 5d82 623e f2f9 73bc d427 18be 5b50 44bd
00000360: 704d 493e 18ea adbd 4ffe bcbc 3c2f c93d
00000370: 3981 35be d94f 9dbd 7749 833e 8631 26bd
00000380: 4e87 453e 47f2 463e 75c3 58be a6cb 4f3e
00000390: fc00 39bd 04dc 4e3e 76cf 373e 68d6 77be
000003a0: 64ed 4d3e b3ac 1abe c8f2 dbbc 3294 44be
000003b0: 36f4 ed3a 3f88 07bd 5ad1 563e 9fbb 11bd
000003c0: ac90 6d3e 18c4 42be 449c 76bd 414b f53d
000003d0: d721 3bbe 8806 3c3e 6928 383e 3180 833c
000003e0: 439b 44be 169b 12bd 4f84 fb3d a9f1 f63c
000003f0: 9c9e 523e de5b 5abe 9e8f bfbc 0b6a 03bd
