checkpoints/best.ckpt (torch_old, 960255 bytes, 10 tensors)

rnn.weight_ih_l0 f4 [512, 64]
00000000: dc5f c3ba e29b 6dba e61b 8fbc 8e62 e7bd
00000010: 368c 4d3c cc91 833d 4334 33bd b175 a23b
00000020: a7f7 5dbc c011 d1b9 3248 8dbc ac9c f4ba
00000030: 48b7 9f3a 962c 7dbc 3fa0 9b3d e7dd 533e
00000040: 4bf5 eeba f0df 6a3b f48b ac3b 6047 cb3c
00000050: c66d 5fbc fe9e f23d 820c ba36 ac40 ff3d
00000060: 54d2 193c fe80 ac3b aa40 33bb 105c f9ba
00000070: e301 a23a cf83 983a 5f55 72ba 5e00 cb3b
00000080: 1496 b2bd f624 713d b644 5c37 a0dd bb3d
00000090: 8017 c239 02c1 afba 1979 e2b7 5088 a53d
000000a0: e2b4 2f3e 9a04 35ba 947c 82b7 9524 44bc
000000b0: 2418 4038 58a9 aa3d 0f57 25bc 3cfc 0139
000000c0: d288 d9bb a97c 313d 200c 9c3a e0b1 bdb9
000000d0: f6db a0b3 493b d1bb 8886 8e3a 83f3 113d
000000e0: b4f5 603b d09f 223c ccf5 61b9 a73a 823c
000000f0: deca 21be cdda 0fbe 0208 983c 6740 933d
00000100: b55a f939 c893 ed3a 1685 553d 0e61 eb3c
00000110: 1e3c d93c 0c9a e63c f4e7 503d 9ab1 53bc
00000120: 0007 ba3c 12b1 813a fc3d c23c 5ed0 d4ba
00000130: cebb aeba 8ac8 353c b459 91bc 78cf 203d
00000140: 90e7 dd3a e49d 143d 96b8 db3a 7f55 d43c
00000150: dc69 503c ef21 ebbb 6c6c 3f36 19e5 e73c
00000160: 7a05 c03c 3498 943c 4e15 363c a83f 2cba
00000170: dac7 263a 945f fa3a 06c8 e93a 2296 dd3c
00000180: ca53 093d 43dc 963c 220d 193a 9af4 efbd
00000190: 9441 5d3b b097 93b9 5715 a1b6 996d d73d
000001a0: 63c1 2b3d d433 e83a 5c7d 61b8 e741 6e3c
000001b0: cccd aeb6 68e4 a4bc 5cd9 003c 0692 0ab9
000001c0: 6ef4 bbbb 40f0 45ba f842 7a3b 13c4 dfbd
000001d0: b2c0 7d31 f879 bc3c df2a 61ba 8f20 a13d
000001e0: 2967 863c c6cf 373d 9b41 793a d0c7 86bc
000001f0: 3019 9a3b 35bd 893e 3217 99bb d8db 0bbb
00000200: bb58 883a 1aa9 5439 a59d debd eab5 29bd
00000210: 8376 283c 2334 503c 520a d1bc 5da2 f0bb
00000220: c264 99bc cdb7 8eba 32be 143c a00d 9cba
00000230: e0be f739 7c70 883c cc05 94bc edc6 32bd
00000240: 7cd0 e139 c936 123c 445b ae3a 1a43 dabc
00000250: b09e b8bd 6593 673d fa4a ccb6 7434 283e
00000260: 2ab7 dd3c dae7 aabd a482 983d 2b6d e03a
00000270: ea0a f7ba a9fb a1b7 12e3 f9ba 8282 51bd
00000280: 68b0 873e 50e0 923d 676b 31b7 a532 1e3d
00000290: 1034 29ba b76a 3b39 a0bb ecba 2906 1e3e
000002a0: 83fc e33d 9430 853c 16c1 77b7 dcc9 e43b
000002b0: daff 1db7 de92 c33d 3dc8 20bc 5449 83b6
000002c0: 304d df3b c639 b43c 29e7 01bc d421 663b
000002d0: e42e 08b4 200c 8b3c e81e 5fba 978b 993d
000002e0: b016 e23b 675b 8bbd 53df 9fba af1a a7bd
000002f0: 09c5 5b3d 635b aebd 7ec7 29bc d65c ef3b
00000300: 01f9 f03a d9a6 403a 2c89 9b3b 1012 773b
00000310: 18b3 513b 8a64 09bc bd8c 1ebd 2f65 f8bb
00000320: 38a4 213b 147c 1f3a f572 b73b e04d 4ab9
00000330: 36ce 2b38 a1a5 8f3b 1c78 833b b6a1 233d
00000340: 1dfb 8738 d7a6 2ebc 665d f6ba 5eff 6f3c
00000350: a2a0 203c 583d da3b c2b6 81b5 1add b63d
00000360: 8bb6 903c 9b2f 853c 1266 27bd d062 cd39
00000370: eb28 ed3a 4669 af37 229d de3a ecea 533d
00000380: 3e01 813c 2e5c 043b 18c4 cc36 5b9b 643d
00000390: 4074 b2b8 aecb c0b9 1589 f1b6 d278 1d3b
000003a0: 1f7f 313e b836 d1ba 81e6 26b6 3b49 efbb
000003b0: b0c1 3eb7 a32a ff3d 474c 1b3c b471 ff37
000003c0: a897 86ba b633 e8bb f024 e53a 2424 9e3c
000003d0: 6271 0b32 3a04 873d 724e 72b9 86c1 fb3c
000003e0: ff64 3d3c b80c 09bc 99b3 673a 92a7 163c
000003f0: 877d 273c 6292 e5bc 6d16 39bc bace 12bc
-0.0014905888 -0.0009064061 -0.017469358 -0.11298095 0.012545636 0.06424293 -0.043751013 0.0049578776
-0.013547814 -0.0003987681 -0.01724634 -0.0018662415 0.0012185359 -0.015452525 0.07598924 0.20690118
-0.0018231062 0.0035839044 0.005265707 0.024814308 -0.013637012 0.118467316 5.544688e-06 0.12463507
0.009388525 0.0052644005 -0.0027351775 -0.0019024629 0.0012360181 0.0011635962 -0.00092442887 0.006195112
-0.087200314 0.05887314 1.312902e-05 0.09173131 0.00037020072 -0.0013408961 -2.699769e-05 0.0808264
0.17158845 -0.0006905288 -1.5555219e-05 -0.011971612 4.579885e-05 0.08333081 -0.010091557 0.00012396363
-0.0066386247 0.043331776 0.0011905469 -0.00036181416 -7.490591e-08 -0.006385241 0.0010873834 0.03563262
0.0034326138 0.009925798 -0.00021549239 0.015897108 -0.15800044 -0.1404831 0.018558506 0.07190018
0.00047560563 0.0018125707 0.052128874 0.028732803 0.026517924 0.028149627 0.051002458 -0.0129207615
0.022708416 0.000989469 0.023711197 -0.0016236415 -0.0013331117 0.0110951755 -0.01774297 0.039260358
0.0016929973 0.03628339 0.0016763385 0.025919674 0.012720551 -0.007175676 2.8524328e-06 0.028307484
0.023440111 0.018138982 0.011113478 -0.0006570765 0.00063621777 0.0019101971 0.0017836101 0.027049128
0.033527173 0.018415576 0.0005838444 -0.11716576 0.0033761011 -0.0002815104 -4.800658e-06 0.10518951
0.041932475 0.0017715641 -5.376093e-05 0.0145420795 -5.209562e-06 -0.020128444 0.0078643225 -0.00013215104
-0.0057359254 -0.00075507537 0.003818689 -0.1092607 3.692588e-09 0.023007378 -0.0008589457 0.07867538
0.016406612 0.044875883 0.0009508372 -0.0164527 0.0047027096 0.26902166 -0.0046719545 -0.0021340754
0.001040242 0.00020280891 -0.10869912 -0.041433252 0.010282162 0.012707743 -0.025517616 -0.007343574
-0.018724803 -0.0010888517 0.009078549 -0.0011905916 0.00047253724 0.0166552 -0.01806917 -0.04364674
0.00043070677 0.008924195 0.0013302346 -0.026643325 -0.09014642 0.05653705 -6.088402e-06 0.1642626
0.027064878 -0.083450034 0.07446793 0.0017122378 -0.0018847857 -1.9309884e-05 -0.0019064865 -0.051149853
0.26501775 0.071716905 -1.0575029e-05 0.038622517 -0.00064545963 0.00017873464 -0.0018061288 0.15432037
0.11132147 0.016258515 -1.4767304e-05 0.0069820713 -9.417499e-06 0.09549497 -0.0098133655 -3.9126408e-06
0.0068146214 0.022000205 -0.007928648 0.0035115378 -1.2683046e-07 0.016973555 -0.00085113803 0.07497328
0.006899677 -0.06804543 -0.0012197293 -0.08159386 0.053654704 -0.085135244 -0.010362504 0.007304768
0.0018384756 0.0007349081 0.004746577 0.0037699975 0.0031997617 -0.008385787 -0.038708437 -0.0075804214
0.0024664532 0.0006083858 0.0055984207 -0.00019293232 4.0961626e-05 0.004383758 0.004012121 0.03994914
6.484075e-05 -0.010659895 -0.0018796145 0.014648287 0.009803923 0.006660145 -9.664438e-07 0.089288905
0.017665168 0.016258052 -0.040868826 0.00039174268 0.001809386 2.0910647e-05 0.0016984085 0.05173771
0.015747663 0.0020196545 6.102502e-06 0.05581222 -8.509355e-05 -0.00036772847 -7.198318e-06 0.0024028313
0.17333649 -0.0015961742 -2.4870099e-06 -0.007302431 -1.1369979e-05 0.12459304 0.009478635 3.0451316e-05
-0.0010268586 -0.0070862425 0.0017482322 0.019304343 8.116645e-09 0.06592603 -0.00023108142 0.030731928
0.011559724 -0.008364849 0.0008838713 0.009195225 0.010222799 -0.028023902 -0.011296851 -0.00896042

rnn.weight_hh_l0 f4 [512, 128]
00000000: 7ffd 3b3d c6a5 61bb b711 01be 7aa4 0cbd
00000010: a2ae edbb 15ae 6abd c921 883e 13db f4bd
00000020: d2cd 6bbe abb0 4dbe b5a1 fabd b89c 5abe
00000030: e0f0 ca3c 646a e8bd 397a c1bd e227 ca3c
00000040: c851 8dbd b8b9 8b3b 349d 5c3c bf81 7a3c
00000050: d154 2bbe bcb3 253b f3da c9bd bd41 2fbd
00000060: 0cf8 e4bd 4670 fc3d ba64 00be 34e8 ff3d
00000070: f0c6 b1bd 46bd 813d c25b be3d d8b9 80bd
00000080: b6d8 293e c284 593e 1746 48bd 06a2 bd3b
00000090: c078 d3bc 9c57 bc3b 6ca0 873d 2413 213b
000000a0: eab4 5ebd d6a4 c5bd 46f1 e0bd 6dcf 07bd
000000b0: 85b6 953d fcdd 993d 6344 09be da8e 1c3d
000000c0: 8af6 723d d4a5 bc3d 917c 1fbe 92d5 343c
000000d0: 7fb6 b5bd a41d 853d 602a 4a3d dd9f 0cbc
000000e0: 4717 83be 6837 333d 3f28 40bd 7ca7 873d
000000f0: 177c e1bd 6c79 db3d c943 0f3d 3f25 5a3e
00000100: 50be d83d 6ee0 4b3e b5cb 053d e8b5 d0ba
00000110: 8741 813d 4357 84bd c2ab f43c 4341 ca3d
00000120: a647 19bb 062b 8a3d 83d2 b33d be81 d8bd
00000130: 682f f4bc dfe1 72bc 641c 9c3d 84c0 833c
00000140: c275 e5bd 0422 32bd f657 0d3d 1a38 e3bc
00000150: f779 d63d 949a 9bbc 06ca 153d 184c d9bc
00000160: 4ba7 3c3e a5c8 843d 201f 82bc 4e3c 1abe
00000170: 7946 ad3b cf70 623d 7ae2 3cbd bc85 82bc
00000180: 7c8c 52bb a887 8ebd 5a76 16bd 5812 3cbb
00000190: 052c bdbd 9e6a 093d 85d9 1abe bc9d a5bd
000001a0: ffb8 76be 6526 3dbd 544c b8bc 6223 37bd
000001b0: 5647 8d3d 2810 123e 5c7e a93d 684a 19be
000001c0: 92b7 41bd c985 e63d 413a 87bc e86f 3a3d
000001d0: 6934 2abd f2a5 b2bb 0cd3 91bd 9229 0f3d
000001e0: 22df c3bc 73c6 033d bd60 5fbe 4a69 b3bd
000001f0: f85d 64bd 31ad b53d 8e26 92bc 24ab 1ebc
00000200: c4b9 2e3d d944 ce3d 3108 083d f35b ae3c
00000210: 0edf f2bd cb17 94bd dcc2 b93d fa83 b1bc
00000220: 80ac aaba 0c83 c0bd b40b 073b cb8d c6bd
00000230: 2235 833d b038 1cbe 2597 71bd e2a6 83bd
00000240: 8c13 003c eaeb 72bd 4476 05bc e835 4c3d
00000250: 87f1 533d aae8 523d a67a a43d 43f7 5b3c
00000260: 9dfa 0bbd c62e 853d 64b6 db3b 85d9 3c3c
00000270: a77f a0bd b66e d43d c664 91bd 9cf0 e8bb
00000280: 58ba 9a3c e081 143e ec22 65bd ad78 9abd
00000290: d91f a73c 8e77 1abb 7472 19bd c2cc a73d
000002a0: 0083 8bbc bcc0 a43b bb9c 403c 6b6d 91bd
000002b0: 7483 a13d 8c06 053e 3ee5 7ebd e438 ddbc
000002c0: 4c45 1fbb d671 a03d ede4 9f3d 93b6 21bd
000002d0: 80bd 31bd b17a 8b3c 74d3 a5bd c0f2 0c3d
000002e0: fb16 b13c 0334 8fbc c36d 24bd 1688 8dbd
000002f0: f459 963c 49ff 003c b76a 5f3d 80eb 983d
00000300: 042c c0bb 7311 733d e6e1 c63c 5c3f 9d3d
00000310: 4aa0 ab3c 7820 da3a c8e8 6dbc 10d2 74bb
00000320: 370d 5c3d 6270 9b3c 05e8 3c3d 201d cc3d
00000330: 39b4 543c 49c6 cebd 1844 013e 0020 9bb8
00000340: 6c17 d73c 2b53 9fbc 42e0 613d 6939 4f3c
00000350: db32 b23b d5e1 fc3c 5346 10bc 0226 4d3c
00000360: 8467 46bb b3c4 063d eb73 713d 46d6 9e3d
00000370: da21 8a3b 20d8 db3a f0e7 423d 86e5 1c3d
00000380: 108d 27be 5db4 6ebd 3e8b 20bc 24f6 99bc
00000390: a69d 8e3d 772f 9ebc 025b 05be 4738 253c
000003a0: 2939 aebd b3a8 f3bc beac a1bd 826f 383d
000003b0: 91da 8b3d 95bc 1fbc dd94 853b 667d c4bd
000003c0: 70db 38bc 9b49 3c3d 38e5 9cbc 6e33 a7bc
000003d0: b040 91bd 8355 4c3d 7498 80bd 8333 3c3d
000003e0: 744e efbc 80d1 2ebd 72a2 8abd e033 fab9
000003f0: fbc8 8f3d 5067 52ba c7fc 15bd 98a7 55bd
0.04589605 -0.0034431084 -0.12604414 -0.034336545 -0.007253484 -0.057294924 0.26588276 -0.119558476
-0.23027733 -0.20086925 -0.122378744 -0.21348846 0.024773061 -0.113484174 -0.0944714 0.02467722
-0.06900364 0.0042640828 0.0134652145 0.015289723 -0.16731574 0.0025284132 -0.098562144 -0.042787302
-0.11180124 0.12326102 -0.12538424 0.12495461 -0.086805224 0.06334929 0.09294845 -0.06285447
0.16586575 0.2124205 -0.048894968 0.005787137 -0.025814414 0.0057477485 0.06622395 0.002457806
-0.05437175 -0.096505806 -0.10983519 -0.0331568 0.073102035 0.07513043 -0.13404994 0.03822217
0.05931715 0.09211317 -0.15574862 0.011037247 -0.08872699 0.06499794 0.04935682 -0.008583036
-0.25603697 0.04375401 -0.04691338 0.06623742 -0.110099964 0.10716519 0.034976754 0.21303271
0.10583174 0.19909832 0.032664973 -0.0015923353 0.063113265 -0.06461956 0.029867057 0.09875729
-0.0023388653 0.06746487 0.08780386 -0.10571621 -0.029807761 -0.01482436 0.076226026 0.01608301
-0.11204101 -0.04348947 0.034507714 -0.027736712 0.10472482 -0.018994607 0.036569618 -0.026525542
0.18423192 0.064835824 -0.015883982 -0.15062067 0.005287942 0.055283364 -0.046114422 -0.01593291
-0.0032127192 -0.06959468 -0.036733963 -0.0028697457 -0.09236912 0.033548944 -0.1512204 -0.08086726
-0.24094008 -0.046179194 -0.022497334 -0.044711478 0.06898372 0.14263976 0.08276054 -0.1496979
-0.047294207 0.11255986 -0.01650727 0.04551688 -0.04155389 -0.005451911 -0.07120332 0.034951754
-0.023910109 0.032171678 -0.21814246 -0.08760317 -0.055753678 0.08870924 -0.01784065 -0.009684358
0.04265763 0.100717254 0.033210937 0.02128408 -0.118589506 -0.07231101 0.090703696 -0.021669377
-0.001302138 -0.09399995 0.002060634 -0.096950136 0.06406619 -0.15256 -0.058982033 -0.06428315
0.00781716 -0.059307016 -0.0081458725 0.049856097 0.05174401 0.051491417 0.08031206 0.013425651
-0.03417455 0.06503062 0.0067050923 0.01152647 -0.07836848 0.10372679 -0.07099299 -0.007108761
0.018887684 0.14502668 -0.055941507 -0.07542548 0.020400928 -0.0023569795 -0.037462667 0.08193351
-0.01703024 0.0050278585 0.011756117 -0.07100948 0.07886401 0.12990779 -0.06223034 -0.027004667
-0.0024302779 0.078342125 0.07807336 -0.039480757 -0.043393612 0.017026277 -0.08096972 0.034411192
0.021617403 -0.017480856 -0.04014374 -0.06910722 0.01835344 0.007873365 0.05454513 0.07466793
-0.005864622 0.059342813 0.024277639 0.076781005 0.020950455 0.0016641757 -0.014520831 -0.0037356652
0.05372354 0.018974487 0.04611971 0.09966493 0.012982422 -0.10096414 0.12623632 -7.3969364e-05
0.026256286 -0.019448837 0.05514551 0.012647965 0.0054381914 0.030869404 -0.008805829 0.012521269
-0.0030274102 0.03290243 0.05894844 0.07755713 0.004215461 0.0016772784 0.047584474 0.038304828
-0.16362405 -0.058277477 -0.009798823 -0.018794127 0.06963663 -0.019309742 -0.13022998 0.010084218
-0.08506996 -0.029743528 -0.07894276 0.045028217 0.068287976 -0.009749551 0.004076584 -0.0959423
-0.011282787 0.045968633 -0.019152269 -0.020410266 -0.07092416 0.049886238 -0.06279078 0.045947563
-0.029212214 -0.042680264 -0.06769265 -0.00047722366 0.07020756 -0.0008026259 -0.03661802 -0.052161783

rnn.bias_ih_l0 f4 [512]
00000000: 67df e43e 24d3 313f 70e5 f43e 2236 d53e
00000010: 7a34 c23e adc4 aa3e 31d1 333f 46cb 043f
00000020: b142 df3e b628 f33d 12a6 f33e e389 283f
00000030: ea33 0e3f e2cf 4a3f e4ce 253f 2449 e93e
00000040: d159 273e f0cb 783e 5df8 c33e 9d11 c63e
00000050: a31d 003f 641f eb3d 0374 ec3e 9827 8b3e
00000060: 8bc6 ae3e 0642 153f b507 e03e f0c6 823e
00000070: 588f 283f e52d 143f 968c f43e efdb e23e
00000080: 8440 db3d be95 033f 924c e83e 0aba 013f
00000090: 5222 7a3e cdea f63e 7799 db3e cfc4 ab3e
000000a0: db8d f73e 588b e53e e016 003f 1552 123f
000000b0: 3b24 363e be80 ee3e 4a0e ec3e 26b7 b03e
000000c0: 1532 293f df68 163f 48c2 b33e d530 ee3e
000000d0: ae6f f63e 548e 743e d856 c93e b922 703e
000000e0: 7bb3 c63e 1101 083f d5d8 ac3e 7cfc b43e
000000f0: 1a39 343f 2f54 133f 82e9 dc3e a263 363f
00000100: 3d57 003f acd4 023f 16b5 b43e 2646 0b3f
00000110: 4504 6b3e 709c 233e a3a9 243f fb18 aa3e
00000120: f101 213f 2261 073f 1395 b83e c7a7 a53e
00000130: 9f6d f73e ec6c b63e 1111 473f 1c5a cd3e
00000140: 65f7 053f b135 fa3e 9c46 df3e 275a b13e
00000150: 024f dc3e 39cb 0e3f a8df 943e fabd e53e
00000160: 609f a13e 49af fc3e 248d 483f c2c7 d33e
00000170: a76e 3d3f d1a4 013f d6a9 043f 69fa ba3e
00000180: 5629 0e3f a16b 0a3f 0408 013f 32f0 753c
00000190: 633d aebd 9118 9f3e 539a 023f 32c6 e43e
000001a0: 0600 0b3f ad66 973e 75ff fc3e a028 4f3e
000001b0: 8f53 d13e 9cba 073f 315e f43e ec2a 283f
000001c0: c96a 243f e464 c73e 4e83 b03e 7b34 1d3f
000001d0: d531 133f 2ead 023f 8f1a 1a3f 5104 163f
000001e0: 19cb fe3e d5ab c43e 9d21 f13e f1f3 033f
000001f0: 4366 1a3e 579a 343e d1d8 0d3f 14df 0d3f
00000200: 9ff6 edbd 20fa 8abe 811c 50be 0eeb 1dbe
00000210: b881 41be 8491 9ebb f4d4 8fbe e572 11be
00000220: eb7d 95bd 00ce 03be 75c8 9bbe 93b5 4cbe
00000230: 5f36 35be a5e2 5abe dd9f 8fbe 67f8 6abe
00000240: 1e71 09be b840 d2bd df33 2fbe 4d57 04be
00000250: 036e a5be 3d14 373d 06c7 6fbe 2631 edbd
00000260: 484e 4abe ef88 60be b10b 40be 1061 14be
00000270: c700 3cbe ba0b 30be dc0e 85be 2be9 c2bd
00000280: 3877 51be fc96 47be b399 8dbe f4cf 41be
00000290: 9641 33be c1d9 60be 3a88 61be 7a3c 4ebe
000002a0: 7507 a3bd 8b85 45be 7239 6cbe d704 76be
000002b0: d02d 1e3d cbe8 34be 5e0f 83be f4d0 74bd
000002c0: dbd0 a3be 48cd 50be 6bb9 04be 1e62 8ebe
000002d0: 6ce0 aabe b167 3cbe 1473 97be a233 d8bd
000002e0: e370 45be ff3d 37be 3e72 75be b250 42be
000002f0: 78d1 94be c207 67be a9ec f9bd 536f 77be
00000300: 1804 82be 13f5 31be 1f74 4dbe b11e eebd
00000310: cf04 68be 2fe1 42be 0bcc 1bbe 42b8 31be
00000320: 898f 29be 2582 39be 2c2f 75be 1f09 41be
00000330: 5e26 62be 3308 88be 8252 7bbe 2c0d 82be
00000340: 4465 8cbe 2690 d2bd 79ce 8cbe 5e2e 10be
00000350: 44d7 d7bd c81c 19be a97e cfbd 3512 15be
00000360: 829c 35bd c42d 11be a6ef 4fbe 9d62 44be
00000370: e6e3 4ebe 5081 3dbe 1a53 a0be e954 08be
00000380: bc01 29be 903a 5ebe 81bc 23be cad6 173c
00000390: 11b0 81be 2952 a5bd ecf4 2ebe 7393 59be
000003a0: 5712 40be b150 1bbe b6a4 59be 5e49 7cbe
000003b0: 0cf4 38be 8242 59be 529d 3dbe 09c0 67be
000003c0: 51f2 41be a091 37be f2dd c3bd 4e0e 94be
000003d0: 7afb b7be c455 68be 477f 91be 92f7 7dbe
000003e0: e75e 2dbe b490 77be c97b 2cbe c822 64be
000003f0: 250b 1abe cedf 953c ced2 19be 79ab 77be
0.44701692 0.694628 0.47831297 0.41642863 0.3793066 0.33353177 0.70241076 0.5187267
0.4360557 0.11872999 0.4758764 0.658354 0.55547965 0.79223454 0.64768815 0.45563614
0.16342856 0.24296546 0.38275424 0.38685313 0.5004522 0.11480597 0.4618226 0.27178645
0.3413585 0.5830387 0.4375588 0.25542402 0.65843725 0.5788253 0.4776351 0.4430842
0.10705665 0.51400363 0.4537092 0.506745 0.24427155 0.48226014 0.42890522 0.3354859
0.48350415 0.44832873 0.50034904 0.571565 0.17787258 0.46582597 0.46104652 0.3451473
0.66092044 0.5875377 0.35109162 0.4652163 0.4813208 0.23882419 0.3932407 0.23450746
0.38808808 0.5312663 0.3375918 0.3534888 0.7039963 0.5755033 0.43146902 0.7124578
0.50133115 0.5110576 0.35294408 0.54403913 0.22950847 0.15977645 0.64321345 0.33222184
0.6289359 0.5288259 0.36051235 0.32354566 0.48325822 0.35629976 0.77760416 0.4010781
0.5233062 0.48869088 0.43608558 0.34639093 0.43029028 0.55778843 0.29076886 0.44871503
0.31566906 0.49352482 0.78340364 0.4136334 0.7399697 0.50642115 0.5182165 0.36519173
0.55531824 0.5407048 0.50402856 0.01501088 -0.08507802 0.3107343 0.5101673 0.4468246
0.5429691 0.29570523 0.49413648 0.20230341 0.40884063 0.5301912 0.47728112 0.65690494
0.6422544 0.3894416 0.34475178 0.61408204 0.5749791 0.510455 0.60196775 0.58600336
0.49764326 0.38412347 0.47095957 0.515441 0.15078072 0.17637001 0.5540896 0.55418515
-0.11619305 -0.27143955 -0.20323373 -0.15421697 -0.1889714 -0.004839124 -0.28092158 -0.14203985
-0.072994076 -0.12871552 -0.30426374 -0.1999114 -0.17696522 -0.2137552 -0.28051654 -0.2294632
-0.13422057 -0.1026625 -0.17109631 -0.12923928 -0.32310495 0.044697035 -0.23415765 -0.1158164
-0.19756424 -0.21927236 -0.1875446 -0.14490151 -0.18359672 -0.17191973 -0.259879 -0.095171295
-0.20455635 -0.1949119 -0.27656326 -0.18926984 -0.17505488 -0.21958067 -0.22024623 -0.20140257
-0.07960407 -0.19289224 -0.23068789 -0.24025284 0.03861791 -0.17666928 -0.25597662 -0.059769586
-0.31995282 -0.20390809 -0.12961356 -0.27809232 -0.33374345 -0.1839893 -0.29579985 -0.10556723
-0.19281344 -0.17894743 -0.23969361 -0.18976095 -0.29066062 -0.22561553 -0.122033425 -0.2416356
-0.25393748 -0.17378645 -0.20063828 -0.11626948 -0.22658084 -0.19031213 -0.15214555 -0.17355445
-0.1655866 -0.18116052 -0.23943776 -0.18851136 -0.22084948 -0.26568756 -0.24543193 -0.25400674
-0.2742101 -0.102814004 -0.27501276 -0.14080188 -0.105391055 -0.14952385 -0.101315804 -0.14557727
-0.04433871 -0.14177614 -0.20306262 -0.19178243 -0.20204124 -0.1850636 -0.313134 -0.1331364
-0.16504568 -0.21702027 -0.15989877 0.009267518 -0.2532964 -0.080723114 -0.17085618 -0.21247654
-0.18756996 -0.151675 -0.21254238 -0.24637362 -0.18061846 -0.21216777 -0.18517044 -0.2263185
-0.18940093 -0.17926645 -0.09563817 -0.28917164 -0.3593405 -0.22688967 -0.28417417 -0.24801472
-0.16930734 -0.24176294 -0.16844095 -0.22278893 -0.15043314 0.018295195 -0.15021822 -0.24186505

rnn.bias_hh_l0 f4 [512]
00000000: 0a43 e53e 90a0 313f 0562 f53e 0139 d53e
00000010: 2e36 c23e 75b8 aa3e a6c6 333f 5aeb 043f
00000020: df5f df3e 1f65 f53d 34a3 f33e 877d 283f
00000030: 591b 0e3f 73cf 4a3f 64b6 253f 454e e93e
00000040: ea67 283e 56be 783e f86e c33e f94d c53e
00000050: a22e 003f b21a eb3d 3240 ec3e 4b26 8b3e
00000060: cb80 ae3e 3041 153f 4ffc df3e 61ad 823e
00000070: cd8e 283f 302d 143f 479a f43e 572f e33e
00000080: 88c0 da3d 1495 033f b275 e83e 4ac6 013f
00000090: d8e7 793e a952 f73e 769e db3e 7ff4 ab3e
000000a0: 332a f83e dfc2 e43e 2846 003f f2b6 123f
000000b0: 7b73 353e 3be4 ed3e 42fb eb3e b9b5 b03e
000000c0: b73e 293f d267 163f 9ec3 b33e 5436 ee3e
000000d0: b6c9 f53e 508e 743e b425 c93e ae8e 703e
000000e0: e352 c63e c902 083f 44bc ac3e fae8 b43e
000000f0: ca76 343f 3564 133f 22ee dc3e 275a 363f
00000100: 6354 003f f4db 023f 5391 b43e e062 0b3f
00000110: fe70 693e e08a 233e 4c9f 243f a6db a93e
00000120: 1651 203f b766 073f 8fbe b83e 25d2 a53e
00000130: c538 f83e 887f b63e 4f4d 473f 6a4f cd3e
00000140: 77fb 053f 8533 fa3e e842 df3e ba7f b13e
00000150: a867 dc3e f3bd 0e3f acd5 943e acbd e53e
00000160: b095 a23e 65be fc3e 3595 483f a4cb d33e
00000170: 795b 3d3f e99f 013f 29ae 043f caf0 ba3e
00000180: 4b1b 0e3f 1470 0a3f a105 013f 7fcc 753c
00000190: 4f48 aebd e418 9f3e e9fe 023f fec1 e43e
000001a0: a7ff 0a3f 7669 973e a89d fc3e bbad 4f3e
000001b0: 9453 d13e 0ce1 073f 3f4c f43e 9923 283f
000001c0: 5173 243f fd64 c73e 1373 b03e 6430 1d3f
000001d0: 8c36 133f ccab 023f 4027 1a3f 4505 163f
000001e0: 33ef fe3e 257b c43e 300a f13e 2b35 043f
000001f0: fe51 1a3e c1e1 333e c4f6 0d3f 6db1 0d3f
00000200: f4b1 edbd 2005 8bbe 7e20 50be 2ceb 1dbe
00000210: 9d42 41be 7862 9ebb 84e8 8fbe f1aa 11be
00000220: 49b1 95bd 1aef 03be 07ce 9bbe 2cfa 4cbe
00000230: 9969 35be 85e5 5abe 69d6 8fbe 4cf8 6abe
00000240: b76d 09be c53f d2bd 6e35 2fbe 3b7f 04be
00000250: e96d a5be aa13 373d ecc4 6fbe 2631 edbd
00000260: 3feb 49be 078b 60be ff0b 40be 6760 14be
00000270: e418 3cbe 400b 30be 3b0e 85be f115 c3bd
00000280: a79e 51be 3ab5 46be ca7e 8dbe 4ecb 41be
00000290: 0244 33be 5de9 60be 1988 61be 4d48 4ebe
000002a0: b068 a3bd b4f2 44be f1e7 6bbe eea5 74be
000002b0: 30c4 3f3d afcd 34be 190f 83be 5dd0 74bd
000002c0: 0d00 a4be c1da 50be 8ab9 04be 1562 8ebe
000002d0: 1e38 abbe aa67 3cbe fd6f 97be 6470 d8bd
000002e0: 8c2b 45be 3240 37be c271 75be 812b 42be
000002f0: 2ad1 94be f4f6 66be 1def f9bd 0e4f 77be
00000300: 5304 82be 7865 31be a03a 4dbe f91a efbd
00000310: 0e33 68be 80e1 42be 08c8 1bbe d6c6 31be
00000320: 5454 29be 14a5 39be e825 75be c50b 41be
00000330: 7c3e 62be b10f 88be 78c6 79be a0f7 81be
00000340: a661 8cbe ee8f d2bd cbc9 8cbe f01e 10be
00000350: bc28 d7bd 0f35 19be 8b7e cfbd fc0f 15be
00000360: 8750 35bd 6930 11be 8d1b 50be 425c 44be
00000370: 4234 4fbe 7776 3dbe 3c15 a0be b854 08be
00000380: 2c38 28be 6655 5ebe ebbe 23be 6bd5 173c
00000390: 10b0 81be 4052 a5bd f180 2fbe 1193 59be
000003a0: c412 40be 9e50 1bbe 009a 59be d445 7cbe
000003b0: 0ef4 38be 26da 59be 9fa1 3dbe bad9 67be
000003c0: 85ca 41be 4291 37be b35c c4bd 8e0e 94be
000003d0: 3dfb b7be 7d54 68be 0e93 91be 46fb 7dbe
000003e0: e06a 2dbe fd79 77be 9d75 2cbe a87d 62be
000003f0: 3ba7 1abe 9ef9 8e3c bbb0 19be 43ff 77be
0.4477771 0.69385624 0.47926345 0.41645053 0.3793196 0.33343855 0.7022499 0.5192162
0.4362783 0.11982178 0.47585452 0.6581654 0.5551048 0.7922279 0.6473143 0.45567527
0.1644589 0.24291357 0.381706 0.3853605 0.50071156 0.11479701 0.46142727 0.27177653
0.34082636 0.58302593 0.43747184 0.25522903 0.65842897 0.5788145 0.47773954 0.44372055
0.10681254 0.5139935 0.45402294 0.5069319 0.24404848 0.48305252 0.42894334 0.33584973
0.48469695 0.44679925 0.5010705 0.573104 0.17719834 0.4646319 0.46090132 0.34513643
0.6611132 0.5875217 0.35110182 0.46525824 0.48005456 0.23882413 0.39286578 0.23491928
0.38735113 0.5312925 0.33737385 0.35333997 0.7049376 0.5757478 0.4315043 0.7123131
0.50128764 0.5111687 0.35267124 0.54447746 0.2279701 0.15970945 0.6430557 0.3317539
0.6262373 0.52891105 0.36082885 0.3238689 0.48480812 0.35644174 0.7785234 0.4009965
0.5233683 0.4886743 0.43605733 0.3466776 0.43047833 0.5575859 0.2906927 0.4487127
0.31754827 0.4936401 0.7835267 0.41366303 0.739677 0.5063463 0.5182825 0.36511832
0.55510396 0.5407727 0.50399214 0.015002369 -0.085098855 0.31073678 0.5117021 0.44679254
0.54296345 0.29572648 0.49339032 0.20281117 0.40884078 0.5307777 0.4771442 0.6567932
0.6423846 0.38944235 0.34462795 0.61401963 0.57505107 0.5104339 0.6021614 0.5860179
0.4979187 0.38375202 0.47078085 0.5164363 0.1507034 0.17566587 0.5545466 0.55348855
-0.116062075 -0.27152348 -0.20324895 -0.15421742 -0.18873067 -0.0048335157 -0.28107083 -0.14225365
-0.07309205 -0.12884179 -0.30430624 -0.20017308 -0.17716064 -0.21376617 -0.2809327 -0.2294628
-0.13420759 -0.10266069 -0.17110226 -0.1293916 -0.32310417 0.044696487 -0.23414963 -0.1158164
-0.19718646 -0.21928035 -0.18754576 -0.144899 -0.1836887 -0.17191792 -0.2598742 -0.09525669
-0.20470677 -0.1940507 -0.27635795 -0.18925211 -0.17506412 -0.21964021 -0.22024573 -0.20144768
-0.07978952 -0.19233209 -0.23037697 -0.23891422 0.04681796 -0.17656587 -0.25597456 -0.059769023
-0.3203129 -0.20395948 -0.12961403 -0.27809206 -0.33441252 -0.1839892 -0.29577628 -0.10568312
-0.19254893 -0.17895582 -0.23969176 -0.18961908 -0.2906583 -0.22555143 -0.1220381 -0.2415125
-0.25393924 -0.17323864 -0.20041895 -0.116750665 -0.22675726 -0.19031334 -0.15213025 -0.17361006
-0.16536075 -0.18129379 -0.23940241 -0.18852146 -0.22094148 -0.26574472 -0.24392116 -0.25384235
-0.2741825 -0.10281359 -0.27497706 -0.14074302 -0.10505816 -0.14961646 -0.10131558 -0.14556879
-0.04426625 -0.14178623 -0.2032301 -0.19175819 -0.20234779 -0.18502222 -0.312662 -0.13313568
-0.16427678 -0.21712264 -0.15990798 0.009267191 -0.25329638 -0.080723286 -0.17139031 -0.21247508
-0.18757159 -0.15167472 -0.21250153 -0.24636012 -0.1806185 -0.21274623 -0.18518685 -0.2264165
-0.18924911 -0.17926505 -0.095879935 -0.28917354 -0.35933867 -0.2268848 -0.28432506 -0.24802884
-0.16935301 -0.24167629 -0.16841741 -0.22118247 -0.15102856 0.017453011 -0.15008824 -0.24218468

rnn.weight_ih_l1 f4 [512, 128]
00000000: fcd1 9f3c fccb 3c3b 403b 79bc 6f43 8c3c
00000010: 92fd 5a3c 28dc 44bb cea2 09bd 002a b0b7
00000020: a8e7 4e3b d440 07bb c0ad 3d3b 3657 d8bc
00000030: b8e5 2c3c ac4d dc3c c01e bd3c 1c09 af3c
00000040: 2470 5e3b 20f9 6a3b ab20 76bc 1205 1fbd
00000050: 7855 8fbb 13ce d33c d2e0 013c ce40 8b3c
00000060: 2672 3cbc 2ae1 7dbc b03b 0dba ec52 b4bb
00000070: 7eef 31bc 0842 2abd 9412 673c bb34 f8bc
00000080: d8e5 923c 80e9 b93b 46eb babc 8027 ecbb
00000090: 7f3a 113c 8ec7 cfbc 5c15 4bbb f86c 9a3c
000000a0: 4285 bd3c d076 593c c8b7 af3c a4cc 003c
000000b0: 2244 dcbc f845 853b 383c f03a 9060 2ebb
000000c0: c064 49b9 0ccf 023d 4888 ae3a 30d4 08bc
000000d0: de55 2cbd 10dd 8cba fae3 4bbc 6664 8e3c
000000e0: 392d 423c 6776 0fbc 10e1 f9ba b8d6 f83a
000000f0: e502 8a3c 8040 76bc d8eb c73b 594d 87bc
00000100: e1f7 993b 94eb 823c 3529 27bc 8fc6 2ebc
00000110: 00eb 1838 383a 013b 6030 f8ba 4061 b4b9
00000120: 90eb 86bc 88e9 9fbc 9086 273a 369c 98bc
00000130: 0692 52bc fc21 d03b 3a3f 94bc 1fda 373c
00000140: f4b9 073b cf29 9d3c c695 a93b f8ef 563b
00000150: 7fc6 97bc 49bd 0c3c 3042 3cbb 64a9 903c
00000160: d096 493d 5eb2 57bc 9e97 42bc da45 3fbd
00000170: d8e2 943a 4928 cc3c 90de c7bc c770 883b
00000180: 47a3 773c dc5c cc3c 7742 24bc c7c0 ccbb
00000190: 9828 20bd 5a1f c4bc 9531 8b3c 0ae0 183c
000001a0: a874 b5bc 80b1 35b9 cc55 893c af2b 81bb
000001b0: 8509 23bc 10a7 c1ba c6ea a9bb eaf3 24bc
000001c0: 88b7 ce3b 54dd 053d a699 b03c d49f 82bc
000001d0: 5e20 d73c 7ec0 a23c 04ba 953c baa8 febb
000001e0: 044c c0bc e66e 35bc 07c3 113c 11a1 25bc
000001f0: 27dc 5cbc 986f 713c 4b80 a8bb 1cdd 4d3b
00000200: c02c b4b9 4008 2cb9 a41e 083d 413b 9dbc
00000210: 3fcb 9e3c 8cfc 12bc 0ad0 ddbc 4f58 933c
00000220: b3cc 513d 9f77 40bd f822 913c be34 513d
00000230: 26d8 8cbc de28 1e3d feec fb3c be0a 6dbc
00000240: c8d3 45bb 2adc 693c d003 f7bb c62f 6a3d
00000250: 872f d33c c030 c6bb 0359 8e3c 1c5c c9bc
00000260: ab57 193b 2efe 9ebc a278 023c aad2 91bc
00000270: c819 eb3c e0ce 043d 105d 00bb e6a6 b33c
00000280: d545 033c 688d 3bbb 6974 b63c 245d 6fbb
00000290: 3947 473c 33f5 0d3d 0aca e0bb 3760 f23c
000002a0: 90be e5bb be38 37bc 6af5 32bd f822 933b
000002b0: 1623 e9bb 6a73 ddbc e1ae bfbc fe52 9b3b
000002c0: 5411 68bc 1cd6 0dbc 4ec0 81bc 8674 bf3c
000002d0: 39e6 14bc f50a 893c d448 413b 2a91 833c
000002e0: b09b 893c 90fb 20bb 77f1 bf3c 5efc 08bd
000002f0: f8b7 0b3b f9e1 ecbc c078 6ebb 82dd f0bc
00000300: 7ccf cd3b f300 d9bc 725d 86bc 9cf2 2bbc
00000310: 6aab 10bc b2bd eebc 6e77 ed3b d8e3 75bb
00000320: 0022 603b 4aaf 90bc 2318 dd3c 8cb9 803b
00000330: 9e70 a23c 43fe 10bc f725 ecbb 1837 eebc
00000340: 0cf5 23bc fa8f 01bd b45e a6bc cae0 823c
00000350: 7029 58bd 2e0f b3bb 49c2 533c abfe 2e3d
00000360: ee8c 24bd 6e12 18bc c033 39bd 046d 5e3c
00000370: 3c00 183b 964b 703c 9b1a f13c 31ae 04bc
00000380: 1174 24bc 0122 aebc f273 7b3c 0fe9 26bc
00000390: 74ed 223d 14ae 08bb c442 133d 4049 3b39
000003a0: 8eef 023d edaa 11bd 26a3 963c 92b9 86bc
000003b0: dc29 8d3c 00aa 17bd 9283 dabc 0ffd 0a3d
000003c0: e4ae 3ebc 3640 323b c3e9 ca3b 4593 0abc
000003d0: 34dc 783c 280b c6bc da75 18bd b3b3 84bc
000003e0: 6fec 47bc 6b3e cb3c 5689 f93c 74ed ea3b
000003f0: 2a83 0b3d 876b 16bd e92d 023c 9d44 87bc
0.019509308 0.0028808108 -0.01521188 0.017121999 0.01336612 -0.003003845 -0.03360253 -2.1000393e-05
0.0031571183 -0.0020638006 0.0028942674 -0.026408773 0.010552816 0.026892506 0.023085952 0.021366648
0.0033941353 0.0035854056 -0.015022437 -0.038823195 -0.0043742023 0.0258551 0.0079271365 0.016998675
-0.0115018245 -0.015495578 -0.0005387617 -0.005503049 -0.010860322 -0.04156688 0.01410355 -0.030298581
0.017931864 0.0056735873 -0.022817265 -0.007206857 0.008864044 -0.02536371 -0.0030988073 0.018850788
0.023134831 0.013272956 0.021449938 0.00786129 -0.026887957 0.004067179 0.0018328493 -0.0026607849
-0.00019206386 0.031935737 0.0013315761 -0.008351371 -0.042074077 -0.0010747034 -0.012444491 0.017381858
0.011851602 -0.008756257 -0.0019064266 0.001898489 0.016847083 -0.015030026 0.006101113 -0.016516374
0.004698739 0.015981473 -0.010202696 -0.010667457 3.6458485e-05 0.001971854 -0.0018935315 -0.00034404732
-0.016469747 -0.019520536 0.0006390596 -0.018629175 -0.0128521975 0.0063517075 -0.018096555 0.011221438
0.0020710202 0.019184975 0.005175325 0.003279684 -0.018527268 0.008590051 -0.0028725974 0.017658897
0.04921609 -0.013165085 -0.011876969 -0.046697475 0.0011359109 0.024921553 -0.024398118 0.0041638347
0.015114612 0.024946623 -0.010025612 -0.006248567 -0.039101213 -0.02394073 0.016991416 0.009330759
-0.022150353 -0.00017327629 0.016764544 -0.003941975 -0.009951 -0.001477452 -0.005185458 -0.010067919
0.0063084997 0.032681778 0.02155764 -0.015945353 0.026260551 0.019867178 0.018277176 -0.0077715786
-0.023473747 -0.0110738035 0.008896596 -0.010109202 -0.013480223 0.014736079 -0.005142247 0.003141231
-0.00034365617 -0.00016406272 0.033232346 -0.019193294 0.019384025 -0.008971345 -0.02707674 0.017986445
0.051220607 -0.04698908 0.01771687 0.05107569 -0.017192911 0.038613193 0.030752655 -0.014467893
-0.0030186046 0.014273683 -0.0075382963 0.057174467 0.025779499 -0.006048292 0.017376428 -0.024580054
0.0023398201 -0.019408312 0.007963331 -0.017800648 0.028698817 0.032423854 -0.001958672 0.02193017
0.008012255 -0.002861822 0.022272306 -0.0036524022 0.012162977 0.03465767 -0.0068600224 0.029586894
-0.007011242 -0.011182962 -0.043691076 0.0044902526 -0.0071147783 -0.027032573 -0.023398818 0.004740118
-0.014164288 -0.008657005 -0.015838768 0.023370992 -0.0090880925 0.016728858 0.0029492872 0.01606043
0.01679787 -0.0024564005 0.02343057 -0.0334438 0.002131937 -0.028916346 -0.003638789 -0.029402498
0.0062808376 -0.02648971 -0.01640198 -0.010494854 -0.008829931 -0.029143188 0.007246903 -0.0037519839
0.0034199953 -0.01766171 0.026989048 0.003928369 0.01982909 -0.008849683 -0.007206674 -0.029079005
-0.010007154 -0.031631447 -0.02030883 0.015976328 -0.052773893 -0.005464456 0.012924739 0.04272334
-0.040173464 -0.009281738 -0.04521537 0.013575796 0.00231935 0.014666459 0.029431632 -0.008098171
-0.010037438 -0.021256449 0.015347468 -0.010187401 0.039777234 -0.0020855712 0.035952345 0.00017860997
0.03196674 -0.0355634 0.018388342 -0.016445909 0.017231874 -0.03702736 -0.026674066 0.03393274
-0.011638377 0.0027198917 0.0061924173 -0.008457963 0.015189219 -0.024175242 -0.037221767 -0.016198969
-0.012202366 0.024810037 0.030460995 0.00716942 0.034060635 -0.03672364 0.007945516 -0.01651221

rnn.weight_hh_l1 f4 [512, 128]
00000000: d538 e23c 4a4a 003d 861a d03c 6120 18bc
00000010: c0a0 923c 1697 38bd 9275 0dbd 09d9 1a3c
00000020: c5c0 40bc c4f0 fabc b315 543c 066c ffbb
00000030: 84d0 2e3d a232 a23b 3bd5 60bc db1d 85bc
00000040: 4260 3c3d dcc8 42ba e4a5 c93c 1aae ed3c
00000050: a0ad 973b a343 a13c f8fe e23c 16ad 133b
00000060: 3ee8 ab3c 7c3a 20bd e205 f2bb f8c3 6f3c
00000070: 4e38 8ebd 02df 83bb e258 d0bc b334 533c
00000080: 8641 c7bb 5c16 c73c 095a 26bc 1f6f c6bc
00000090: c8fd 04bc 32c9 3fbc 4265 f63c a84d 80bc
000000a0: 70e2 3f3d a6c0 133d 9cb9 75bb 44bd 8dbd
000000b0: 6005 783b 3728 16bd 2219 9f3c e367 023d
000000c0: a664 2c3c a045 493c f09d 4abc cea5 253d
000000d0: 0099 083d cc80 ce3c 64c3 083d 6e3f 513c
000000e0: 054a 9a3b 9c86 f03c 847f 013d 8c18 223c
000000f0: 3f6e 2abc 026c 253d 827f 113c cc87 073b
00000100: d8a1 60bd 8c9b b23b 6d73 933c a565 32bc
00000110: c800 f0bc d212 23bc 0548 533c 9cac 503d
00000120: 0c86 66bc 5e30 8e3c 0245 ba3b 171b cabc
00000130: 6940 d5bc 7008 a13a 501f 403a abdd 0cbc
00000140: 1bff 76bd d0dc 1d3a e5eb 773c 7a68 ab3b
00000150: 44eb cebc 18d8 db3c 6ef0 8ebc e80e e0ba
00000160: 32c0 c8bc 9659 eb3b a242 4bbc cae8 f3bb
00000170: 3533 323c be55 fabc 7e30 093d ea82 bc3b
00000180: a5b7 34bd 26af ee3c 4b9d 51bd 6710 13bc
00000190: e12d 03bd 340b 253d be31 febb a8ca 623c
000001a0: 2850 17bd 659a 2d3c 48e1 263c a662 273d
000001b0: 80ff b6ba 1e78 2fbc 6b9a 1cbc 5d23 193c
000001c0: 5951 903d 70d0 d0bc a28e b0bc a6b3 1d3d
000001d0: 4c91 933b 129b f83c ad27 f2bc 6e7a ae3b
000001e0: 907d 88bc 00f1 0ebb 915b dfbb e4ad 47bb
000001f0: 47d1 b0bc 261b b9bb b81c 443c ae79 b5bb
00000200: 0781 bf3c 50fa 913c 6967 923c 3e1b 4b3b
00000210: 067e e63c f0ff 77ba 50d9 19bb 73db 963c
00000220: 9acf 6b3b 8023 44ba 07e6 2b3c ce80 fabb
00000230: e88d dd3c fc7d c43b dca0 95bb bc91 9e3c
00000240: 6683 af3c a7fd 2a3c 93a8 073c 0afe d83b
00000250: f769 03bc 23b7 7fbc 6e28 a43b e066 83b9
00000260: b830 f43c 6c3c f7bc 4e6a a73b e5d8 4a3c
00000270: c669 8bbd 4782 153c 4ca1 c7bb 5d1f 01bd
00000280: c146 643b 7a34 88bb 7057 f7bb 4222 aebc
00000290: f4ad f03a 87f2 0cbc 5730 893c beef 203d
000002a0: 5875 c23c 0521 1f3c 4422 f0bb 76fc 4dbd
000002b0: 2bfc 1a3c 3fe8 9ebc 2c3a ea3b 1b9b 843c
000002c0: dacb d33c 174a 15bc 40f4 cabb 7de5 bc3c
000002d0: a4da 1d3d a2e8 693c 4c52 903c ce73 b4bb
000002e0: d6ae 143c c603 07bd cad0 ae3c f5a8 13bb
000002f0: 729a 673b 9048 5e3d a2f4 4dbc 1a01 843c
00000300: 03a5 57bd fca7 11bc e0af ae3a a038 00bd
00000310: 5770 4dbc 30c8 99bb 506f b3bb f44b d33c
00000320: d28f 73bc 227b 45bc ea6f 9b3b e491 39bd
00000330: c883 b3ba 50e5 f4ba 18b3 7abb dc5f d53a
00000340: a27b 72bd fbef 46bc 22c3 b23b a892 bd3b
00000350: 4d36 1bbc 2736 0c3c 5646 513b b78b 0f3c
00000360: e4aa cabb b493 10bc b641 09bc f68d 873b
00000370: e4a0 c4bb 1015 ac3c 49ae 133d 24ad b4bb
00000380: 68f6 a6bc f032 91ba 11c1 0abd b411 b4bc
00000390: b658 b0bc 861c 303d 3012 a3ba d562 c43c
000003a0: 2a9a d2bc f69b 8a3c 96a8 84bb 670e 81bc
000003b0: 7845 9f3b 909b b13b bed5 abbc 287f a8bb
000003c0: 0763 513d 5826 983a 0ac7 473b 7b82 623c
000003d0: eea3 90bc 8783 063c b379 6bbc eeb7 ec3b
000003e0: 6daf e43c 378c 1fbc e0fa e339 4c08 7d3b
000003f0: 64ee d0bb c06a 8839 4c56 8dbb be4d 7abb
0.02761499 0.031320848 0.025403272 -0.0092850635 0.017898917 -0.04506596 -0.034535952 0.009451159
-0.01176471 -0.030632384 0.012944627 -0.00779486 0.042679325 0.0049498836 -0.013722713 -0.016249588
0.045990236 -0.0007430443 0.024615236 0.029013682 0.004628852 0.019685572 0.02770947 0.0022533587
0.020984765 -0.039118275 -0.007385955 0.014634125 -0.06944333 -0.0040243873 -0.025433008 0.012890982
-0.006080809 0.024302654 -0.010153302 -0.024222909 -0.008117147 -0.011705684 0.03007758 -0.01566203
0.046846807 0.036072396 -0.0037494665 -0.06920865 0.0037845 -0.036659446 0.019421164 0.031837355
0.010522043 0.012284666 -0.012366757 0.040441327 0.033349037 0.0252079 0.033389464 0.0127714705
0.004708531 0.029361062 0.03161575 0.009893548 -0.010402261 0.040386207 0.008880498 0.0020680306
-0.054841846 0.0054506715 0.017999375 -0.010888492 -0.029297248 -0.009953218 0.012895589 0.050945863
-0.014070045 0.017357048 0.005684496 -0.02467112 -0.02603169 0.001228584 0.00073288847 -0.008597772
-0.06030188 0.00060219783 0.015131925 0.0052309604 -0.025258668 0.02683644 -0.01744863 -0.0017094286
-0.024505708 0.0071823103 -0.012406023 -0.007443522 0.0108764665 -0.030558463 0.03349351 0.005752911
-0.04412045 0.029136252 -0.051175397 -0.008976079 -0.032026175 0.040293887 -0.0077573946 0.013842262
-0.036941677 0.010595893 0.010185547 0.040865563 -0.0013961643 -0.0107097905 -0.0095583005 0.00934681
0.07046766 -0.025490016 -0.021552388 0.038501404 0.0045034047 0.03034738 -0.029559935 0.0053246533
-0.016661435 -0.0021811128 -0.0068163355 -0.0030468637 -0.021584166 -0.0056489883 0.011969738 -0.005538187
0.023376955 0.017819554 0.017871575 0.003099158 0.028136265 -0.000946044 -0.0023475476 0.018415188
0.0035981894 -0.00074820966 0.0104918545 -0.0076447492 0.027045205 0.005996464 -0.004566295 0.019356601
0.02142496 0.010436452 0.008279937 0.0066220807 -0.008020869 -0.015607628 0.0050097024 -0.00025062915
0.029808387 -0.030180179 0.005109108 0.012380813 -0.06807284 0.009125299 -0.006092226 -0.03152405
0.0034832212 -0.0041566463 -0.007548265 -0.02125657 0.0018362389 -0.008602745 0.016746683 0.039291136
0.023737594 0.009712462 -0.0073283035 -0.050289594 0.009459536 -0.019397853 0.007148048 0.016187241
0.02585404 -0.009111903 -0.0061936677 0.023058647 0.03853859 0.014276655 0.017617367 -0.005506969
0.009074887 -0.032962583 0.021339793 -0.0022531126 0.003533986 0.05426842 -0.012570532 0.016113807
-0.0526476 -0.008890148 0.0013327561 -0.031304 -0.012538991 -0.0046930537 -0.005475916 0.025793053
-0.014865832 -0.012053283 0.004743566 -0.045305148 -0.001369589 -0.0018684063 -0.003825372 0.0016279179
-0.059199937 -0.012142177 0.0054553906 0.005785305 -0.0094733955 0.008557833 0.0031932793 0.008761338
-0.0061849225 -0.008824278 -0.008377483 0.004136796 -0.006000625 0.021006137 0.036054883 -0.005513804
-0.020381168 -0.0011077803 -0.03387553 -0.021981098 -0.021526676 0.042995952 -0.0012441333 0.023972908
-0.025708277 0.016920071 -0.0040484173 -0.015753938 0.0048605762 0.005420156 -0.020975944 -0.0051421113
0.05111983 0.0011608107 0.0030483627 0.013825054 -0.017656293 0.0082100695 -0.014372277 0.0072240746
0.02791568 -0.00973802 0.0004348373 0.0038609682 -0.0063760746 0.00026019476 -0.004313266 -0.003819331

rnn.bias_ih_l1 f4 [512]
00000000: 5e44 bb3e 417f 793e dceb 8f3e 7cf1 823e
00000010: d463 9d3e ac64 993e 3dbd 933e 28cc 573e
00000020: d3db febd 8e2c 943e 7e69 873e 33c7 bcbd
00000030: fb3e ea3d a353 263e 9d4a 613e bbf5 9a3e
00000040: 230a 753e 0726 83bd 3f67 3f3e e85f 653e
00000050: b8f6 973c 7fb1 f93e 0e9b c53e d0a2 153e
00000060: f092 d93e 2cc4 903e ed8d bebd b8ae 9d3e
00000070: d304 e93e 66b8 7fbd 602b 863e eb2f 4c3e
00000080: 448e bdbd 6fe1 703e 182e 213e 883f 653e
00000090: cd05 4b3e a98d f6bc 8fe6 4d3e d631 0d3f
000000a0: 8b4d 3c3e f0c2 7f3e cfaa 5f3d da0c 093f
000000b0: 7db3 573c d574 923e 99f0 5d3e b499 6a3e
000000c0: 4e3c c23e dee2 803e d781 7e3e c2c1 d43e
000000d0: 90cc aa3e 4138 b33e 0538 753e a658 f53d
000000e0: f419 6a3d 163d 913e 450a 453e 5b7e e4bd
000000f0: 1ef5 ac3e 35e3 873e 6b11 923e f275 a93e
00000100: 3511 5b3e 02ed 86bd 3843 b73e dfdd 763e
00000110: 34a6 fd3d e0a6 6e3e 70d6 993e f216 1d3e
00000120: 9b85 483e eb03 f93d 7071 7c3e f722 a53e
00000130: 4d9b 8e3e 6d0a 953e 84c8 143e 21e1 d0bd
00000140: bd33 d83e 75d5 e9bc df4a 893c 8c38 9e3e
00000150: 76bc 7f3e 5472 373e 28a6 84bd d075 f03c
00000160: d307 0d3e 3885 ed3d beaf 90bd b251 f7bd
00000170: 0afb a0bc 7349 a43e e783 d23e ae75 373e
00000180: 40ff 8b3e a90d 5e3e 7d0f a03e 9888 2b3e
00000190: 189b 883e 5200 833e d811 933e ab06 b83e
000001a0: 0a20 853e 97ee 813e 76a5 86bd ba6d 7f3e
000001b0: feae 763e e071 a4bd f548 463e 36ba dabd
000001c0: ca6b ac3e 2e0f c13e 1e2d fb3d ae3f 833e
000001d0: 4c5f ad3e 3212 ad3e 03e8 753e da1c f13d
000001e0: faa1 0c3e 1e10 bdbd e771 933e e876 8d3d
000001f0: 48d9 873e 2296 603c e7c1 bebd 703d 06be
00000200: 2087 2c3e f565 393e 2b4b 503e 96c7 3a3e
00000210: 24cd 3c3e 50e5 5a3e 4b77 5e3e 420e 583e
00000220: a524 8bbd e092 583e 7f76 f83c 5c9e 1dbd
00000230: c9c6 803e 569c 423e 48e8 403e 123c 1bbe
00000240: 60c0 453e a04f 21bd 7b28 0e3e f93e 5b3e
00000250: 1fc4 0a3c 92fc 11be 32c9 263e d2e5 43be
00000260: a0b0 3bbd b3e7 203e 2c15 23bd 464b 7abe
00000270: 358c 3a3e 2a22 15bd 39bf 3c3e d32f 80be
00000280: b032 2bbd 24b9 6ebd 7ee6 3a3e 830c 453e
00000290: 9376 c2bd 1cc3 563b 49fc 423e d136 64be
000002a0: 136c 383e c939 2f3e b4c2 d23c 5bdc 613e
000002b0: 163c 5cbc 4b40 3e3e 4a9a 433e c0a9 5e3e
000002c0: b258 87be f4c3 48be 9fd4 2d3e 6333 5c3e
000002d0: de6f 2f3e 18d0 623e 1a47 d83d b48a 48be
000002e0: b27f 863d 0616 29be e7dd 3c3e 8e61 69bd
000002f0: 889e 61be 4584 513e d69f dabc efb1 c2bc
00000300: 9109 5b3e 1d0c 09bd 9880 1dbe 7665 663e
00000310: d0fa eb3d 571a 4d3e 5ccc 63be 91a3 093e
00000320: c8d7 3f3e e2f0 bbbe 9f68 063e f7b3 563e
00000330: 5c94 1b3e 0ac7 97bd 4603 a6bb 7285 2ebd
00000340: 2908 cd3d 7a77 e5bc 43c9 06be cb0a c2bd
00000350: 8885 5d3e c9a9 cc3d b299 06be a85f 05bd
00000360: 11ad 2e3e cffd d8bd 4d14 51bd 526c af3d
00000370: 6e96 43be 8d2e a4bd b098 7a3e 211c a4bd
00000380: d414 2a3e f20c 413e 74cb 50be af88 3d3e
00000390: 9805 1abd 70e1 583e 30c0 1c3e 1e67 72be
000003a0: c239 3d3e 1ac8 1dbe 0604 45bd 3e02 53be
000003b0: 85a9 543c daf1 1fbd 95c7 3e3e c45c 46bd
000003c0: e099 553e 0f7a 4cbe 7a25 d23c 47be 143e
000003d0: 8400 44be fcb3 273e cfca 353e 7c94 f03c
000003e0: fad0 41be 9d2a 00bd 2e2c 323e f820 2abc
000003f0: e5ec 3e3e 1a1c 4bbe 16af 18bd 8e07 39bd
0.36575598 0.2436495 0.28109634 0.25574863 0.30740225 0.2995962 0.28855315 0.21073973
-0.12444272 0.28940243 0.26447672 -0.09217682 0.11437794 0.16242842 0.22001119 0.30265602
0.23929648 -0.064037375 0.18691729 0.22399867 0.018550262 0.4876823 0.3859486 0.1461289
0.42494917 0.28274667 -0.09304414 0.30797362 0.45511493 -0.062431715 0.26204967 0.19940154
-0.09255651 0.23523496 0.1574024 0.22387516 0.19826432 -0.030096846 0.20107482 0.5515417
0.18388955 0.24976707 0.054606255 0.53535235 0.013165352 0.2860476 0.21673812 0.22910196
0.37936634 0.25173086 0.24854217 0.41554075 0.33359194 0.35003856 0.23947151 0.11979799
0.057153657 0.28366917 0.19242199 -0.11156913 0.3378076 0.26540533 0.28528914 0.33097798
0.21393283 -0.065881744 0.3579347 0.24108075 0.12385216 0.23305845 0.30046415 0.15340784
0.19582216 0.121589504 0.24652648 0.3225324 0.2785286 0.29109517 0.14529616 -0.1019919
0.42226973 -0.028544167 0.016759334 0.30902517 0.24974236 0.17914706 -0.06477004 0.029353052
0.13772516 0.11597675 -0.0706477 -0.12076129 -0.019650955 0.32087287 0.41116259 0.17915985
0.27343178 0.21684898 0.31261817 0.16751325 0.26680827 0.25586182 0.2872455 0.35942587
0.26001006 0.25377342 -0.06574528 0.24944201 0.24090192 -0.080295324 0.19363768 -0.10680048
0.33675987 0.37706894 0.12264465 0.2563452 0.33861768 0.33802944 0.24014287 0.11773081
0.13733664 -0.0923159 0.28797838 0.06907445 0.2653296 0.013707669 -0.09314328 -0.13109374
0.16848421 0.181053 0.20341174 0.18240198 0.1843763 0.21376538 0.21725194 0.21099189
-0.06794099 0.21149778 0.03032994 -0.0384811 0.2515166 0.1900495 0.18838608 -0.15159634
0.19311666 -0.039382577 0.1388263 0.21410741 0.0084696105 -0.14256504 0.16287687 -0.19130638
-0.04582274 0.15713386 -0.039815113 -0.24442777 0.18217547 -0.036409535 0.1843232 -0.25036487
-0.041796386 -0.058282033 0.18251988 0.19243054 -0.094952725 0.0032770103 0.19041552 -0.22286536
0.18009977 0.17111887 0.025727607 0.22056715 -0.01344206 0.18579213 0.19101825 0.21744442
-0.26434857 -0.19606 0.1697564 0.21503977 0.17132518 0.22149694 0.105604365 -0.19584161
0.06567325 -0.16512308 0.18444024 -0.0569778 -0.22033131 0.20460613 -0.026687544 -0.023766486
0.21390368 -0.033458818 -0.15381086 0.22499642 0.11522448 0.20029579 -0.22245926 0.13441302
0.18734658 -0.36707217 0.13125847 0.20967089 0.15193313 -0.074110106 -0.005066308 -0.042607732
0.10011322 -0.028011072 -0.13162713 -0.09474715 0.2163297 0.099933214 -0.13144568 -0.032561928
0.17058207 -0.10595285 -0.05104475 0.08565582 -0.19100353 -0.08016691 0.24472308 -0.08013178
0.16609508 0.18852594 -0.20390111 0.18509172 -0.03760299 0.21179748 0.15307689 -0.23672149
0.18479064 -0.15408364 -0.04809954 -0.20606324 0.01297987 -0.039049007 0.18630822 -0.048428312
0.2085948 -0.19968437 0.025652636 0.1452571 -0.19140822 0.16377252 0.17753147 0.029367678
-0.18927374 -0.03129064 0.17399666 -0.010383837 0.18645056 -0.19834939 -0.03727635 -0.04517322

rnn.bias_hh_l1 f4 [512]
00000000: 2944 bb3e 937e 793e a7ec 8f3e e8f0 823e
00000010: e463 9d3e c364 993e 42bd 933e 35ca 573e
00000020: ffdb febd 912c 943e c268 873e aabd bcbd
00000030: d240 ea3d 4953 263e a64a 613e 1cf3 9a3e
00000040: 820b 753e a727 83bd 5f69 3f3e e75f 653e
00000050: 72fc 973c 2033 fa3e 0b9b c53e 6f3c 153e
00000060: 4888 d93e 28c4 903e af91 bebd 5742 9d3e
00000070: e704 e93e 3f91 7fbd 722b 863e 2005 4c3e
00000080: 408e bdbd 95fb 713e 532f 213e 8b3f 653e
00000090: b6f6 4a3e 058e f6bc f1e7 4d3e 3a20 0d3f
000000a0: bc4d 3c3e acc2 7f3e 00bf 5f3d cc0c 093f
000000b0: 0a97 573c da74 923e 55f0 5d3e 3f9a 6a3e
000000c0: d0df c13e d357 813e a881 7e3e 43c2 d43e
000000d0: 84cc aa3e 4438 b33e 7733 753e c9fd f73d
000000e0: 1c0a 6a3d b241 913e c709 453e 9081 e4bd
000000f0: 14f5 ac3e 47e3 873e ca11 923e fa76 a93e
00000100: 8111 5b3e baed 86bd 6032 b73e abde 763e
00000110: e8a5 fd3d bea7 6e3e 07a7 993e d616 1d3e
00000120: 9585 483e 2b9c ff3d 2372 7c3e 6621 a53e
00000130: 3c9b 8e3e 7b0a 953e f1c7 143e 43e2 d0bd
00000140: 0134 d83e eaba e9bc 6093 7c3c 823c 9e3e
00000150: 9ebc 7f3e e971 373e fa58 84bd f88d 1b3d
00000160: 1608 0d3e 3e30 f03d 7ab0 90bd 8542 f7bd
00000170: 8ff0 9ebc bfee a43e ea83 d23e 86f1 363e
00000180: 63ff 8b3e 2f0e 5e3e a309 a03e 9d88 2b3e
00000190: 8c9b 883e 9300 833e cc12 933e 1eca b63e
000001a0: eb1f 853e 5b7a 823e 5ea9 86bd 0041 7f3e
000001b0: a6b0 763e 3c71 a4bd 6148 463e 0cbb dabd
000001c0: 7e6b ac3e 6f0c c13e 6d29 fb3d ee3e 833e
000001d0: c660 ad3e 2814 ad3e 29e6 753e 261b f13d
000001e0: 57e8 0c3e 2c0e bdbd 8a71 933e df64 8d3d
000001f0: 43d9 873e ae79 6f3c bdc1 bebd 2b3e 06be
00000200: 7887 2c3e 9765 393e 314d 503e 78c7 3a3e
00000210: 42cd 3c3e b6e4 5a3e 2577 5e3e 3f0e 583e
00000220: b823 8bbd e492 583e e077 f83c 0196 1dbd
00000230: f10a 813e 599c 423e e5e7 403e d40e 1bbe
00000240: bcc1 453e f24e 21bd c128 0e3e 103f 5b3e
00000250: 10b9 0a3c 0b12 12be 25c9 263e 3190 43be
00000260: a84a 42bd e2e7 203e a22e 23bd a13e 7abe
00000270: 088c 3a3e 981e 15bd 2dbf 3c3e 58c5 80be
00000280: 0933 2bbd acae 6ebd e7e6 3a3e 750c 453e
00000290: 8991 c2bd e0b1 563b 43fb 423e 8313 6bbe
000002a0: f169 383e e436 2f3e 8acb d23c 4ddc 613e
000002b0: 792b 5cbc 2c40 3e3e ee99 433e c4a9 5e3e
000002c0: 36e9 86be d240 47be 1dd4 2d3e d133 5c3e
000002d0: da6f 2f3e 06d0 623e 7e44 d83d 61f2 48be
000002e0: 5668 873d f72d 2cbe c3dd 3c3e c960 69bd
000002f0: 13b5 61be 4884 513e ce2c dabc 16b2 c2bc
00000300: 130a 5b3e b206 09bd 32ae 1dbe 6965 663e
00000310: a0f9 eb3d cf19 4d3e 4d37 63be c2a5 093e
00000320: c0d7 3f3e d537 babe 9e68 063e 01b4 563e
00000330: 3b94 1b3e f2d1 97bd 5600 a6bb 6a84 2ebd
00000340: 44de cc3d f478 e5bc 3ed3 06be 3234 c2bd
00000350: a185 5d3e daab cc3d 3b80 06be 6c1f 0dbd
00000360: 11ad 2e3e 6145 dcbd d40f 51bd 426d af3d
00000370: 0e90 43be 3a78 95bd 9f98 7a3e 2396 a2bd
00000380: d514 2a3e ec0c 413e 27cc 50be bc88 3d3e
00000390: 83b1 19bd 7de1 583e cfbf 1c3e 24c2 72be
000003a0: 9938 3d3e daf7 1cbe 0608 45bd 7655 53be
000003b0: 17cc 543c 53f2 1fbd 7dc7 3e3e 9a5f 46bd
000003c0: 019b 553e 5173 4cbe ea25 d23c 3eb6 143e
000003d0: 2d39 44be 930d 293e 08ca 353e 6796 f03c
000003e0: 0caa 41be 1a2a 00bd 0f2c 323e ba11 2abc
000003f0: f5ec 3e3e f0f6 4abe 45ae 18bd 091b 39bd
0.3657544 0.2436469 0.2811024 0.25574422 0.30740273 0.29959688 0.2885533 0.2107323
-0.12444305 0.2894025 0.2644711 -0.09215863 0.11438145 0.16242708 0.22001132 0.30263603
0.23930171 -0.064040475 0.1869254 0.22399865 0.018552992 0.4886713 0.3859485 0.14573835
0.42486787 0.28274655 -0.09305131 0.30714676 0.45511553 -0.062394377 0.2620502 0.1992383
-0.09255648 0.23631127 0.15740709 0.22387521 0.19820675 -0.030097017 0.2010801 0.551273
0.18389028 0.24976605 0.05462551 0.5353515 0.013158569 0.28604776 0.2167371 0.22910403
0.37866068 0.25262317 0.24854147 0.4155446 0.33359158 0.35003865 0.23945414 0.121089526
0.057138547 0.28370434 0.19242011 -0.111575246 0.3378073 0.26540586 0.28529197 0.33098584
0.21393396 -0.065883115 0.3578062 0.24108379 0.1238516 0.23306176 0.30010244 0.15340742
0.19582208 0.124809586 0.24652915 0.32252043 0.2785281 0.29109558 0.14529397 -0.10199406
0.42227176 -0.02853151 0.015415996 0.3090554 0.24974295 0.17914547 -0.064622834 0.03797719
0.13772616 0.117279515 -0.0706491 -0.120732345 -0.019401817 0.322134 0.41116267 0.17865571
0.27343282 0.21685098 0.31257352 0.16751333 0.26681173 0.25586376 0.28725278 0.35701078
0.26000914 0.25483975 -0.06575273 0.2492714 0.24090824 -0.0802941 0.19363548 -0.106802076
0.3367576 0.377048 0.12263761 0.2563395 0.33862895 0.3380444 0.2401358 0.11772756
0.13760506 -0.09231219 0.2879756 0.06904005 0.26532945 0.014616413 -0.093142964 -0.13109653
0.16848552 0.1810516 0.20341946 0.18240154 0.18437675 0.21376309 0.21725138 0.21099184
-0.06793922 0.21149784 0.030330598 -0.038473133 0.2520366 0.19004954 0.1883846 -0.15142375
0.19312185 -0.03938193 0.13882734 0.21410775 0.008466974 -0.14264695 0.16287668 -0.19097973
-0.04743448 0.15713456 -0.039839394 -0.24437954 0.1821748 -0.03640613 0.18432303 -0.2515056
-0.041796718 -0.05827205 0.18252145 0.19243033 -0.09500415 0.003275983 0.19041161 -0.22956662
0.18009163 0.17110783 0.02573182 0.22056694 -0.013438099 0.18579167 0.19101688 0.21744448
-0.263498 -0.1945832 0.16975446 0.21504141 0.17132512 0.22149667 0.10559939 -0.1962371
0.066116974 -0.16814409 0.1844397 -0.056977067 -0.2204173 0.20460618 -0.026632693 -0.023766559
0.21390562 -0.03345365 -0.15398481 0.22499622 0.115222216 0.20029376 -0.22189064 0.13442138
0.18734646 -0.3637072 0.13125846 0.20967104 0.15193264 -0.07413091 -0.005065958 -0.04260675
0.10003331 -0.028011777 -0.1316652 -0.09482612 0.21633007 0.099937156 -0.13134854 -0.034453794
0.17058207 -0.107554205 -0.051040486 0.08565761 -0.19097921 -0.07298322 0.24472283 -0.079387926
0.1660951 0.18852586 -0.20390378 0.18509191 -0.037522804 0.21179767 0.15307544 -0.23706871
0.18478622 -0.15328923 -0.048103355 -0.2063807 0.012988112 -0.039049458 0.18630786 -0.048431017
0.2085991 -0.19965865 0.025652844 0.14522645 -0.19162436 0.16509084 0.1775285 0.029368592
-0.18912524 -0.03129015 0.1739962 -0.010380203 0.1864508 -0.19820762 -0.03727557 -0.0451918
